Bongard-LOGO_Baselines/save/meta_shape-bongard-v2-6shot_meta-baseline-resnet12-seed123/epoch-last.pth (torch, 52195 bytes, 80 tensors)

encoder.fc.layer.0.weight f4 [10, 10]
-0.10470806 0.17572103 0.06706027 0.019096805 0.18884547 -0.031306654 -0.07252886 0.25204086
0.00856177 0.23637635 -0.13037433 0.0710745 0.3138624 -0.28717172 -0.0872224 -0.15183419
0.29146865 -0.011586902 0.062619306 -0.28188676 -0.08278422 0.12102371 0.122858174 0.14218806
-0.1822608 -0.18788204 0.19052525 -0.2509551 -0.034606677 0.23552263 -0.21550204 0.17105065
-0.07459633 -0.10593918 -0.208364 0.022882782 0.15229686 -0.051738095 0.3007317 -0.20664544
-0.25018424 -0.06308422 -0.295938 -0.13771822 0.092546724 -0.17353988 -0.23632112 0.25768262
0.011269 -0.14398724 0.31192812 -0.15970871 -0.113528736 -0.22025989 -0.0752163 0.023580218
0.20197287 -0.09384012 -0.090499386 -0.20750122 0.08842242 0.31355366 -0.3063293 -0.13183439
-0.18771145 -0.111332 0.1360333 -0.023556167 0.15080336 0.2730379 0.13439403 -0.01608057
-0.26162794 -0.16107768 0.24349225 0.16092956 -0.13709195 -0.0077473205 0.23559111 0.014081482
0.14883673 0.22476748 -0.1465304 -0.11212338 -0.20638873 0.13326643 -0.22104467 0.24379028
0.26219267 0.25365826 -0.060111303 0.16779202 -0.031944342 -0.11438163 -0.16011964 -0.10894176
0.1921548 0.2598985 0.024369525 0.18253717
00000000: 2e71 d6bd 37f0 333e e556 893d e770 9c3c
00000010: b560 413e 683b 00bd 038a 94bd 800b 813e
00000020: ab46 0c3c a40c 723e d980 05be 828f 913d
00000030: 93b2 a03e 2c08 93be a8a1 b2bd 6c7a 1bbe
00000040: 613b 953e fdd6 3dbc 8d3e 803d 7653 90be
00000050: c68a a9bd 47db f73d 119d fb3d bf99 113e
00000060: 93a2 3abe 2664 40be 0d19 433e 307d 80be
00000070: bbbf 0dbd d82c 713e 91ac 5cbe e727 2f3e
00000080: f6c5 98bd a4f6 d8bd 5f5d 55be ac74 bb3c
00000090: b5f3 1b3e 53eb 53bd 81f9 993e dd9a 53be
000000a0: 2618 80be 4d32 81bd 2f85 97be 0106 0dbe
000000b0: 2389 bd3d 70b4 31be 2afe 71be faee 833e
000000c0: 9da1 383c 6471 13be 0bb5 9f3e ae8a 23be
000000d0: c181 e8bd cf8b 61be 010b 9abd 4d2b c13c
000000e0: fad1 4e3e 402f c0bd be57 b9bd 337b 54be
000000f0: d016 b53d 1b8a a03e 32d7 9cbe 98ff 06be
00000100: 6e37 40be 0802 e4bd 504c 0b3e ddf8 c0bc
00000110: 326c 1a3e a0cb 8b3e 979e 093e 66bb 83bc
00000120: 19f4 85be 8cf1 24be 0856 793e b8ca 243e
00000130: d561 0cbe 3cdd fdbb cc3e 713e 04b6 663c
00000140: a868 183e 7229 663e 110c 16be f1a0 e5bd
00000150: 9157 53be ff76 083e 8959 62be 29a4 793e
00000160: 1e3e 863e 7fdf 813e 4537 76bd acd1 2b3e
00000170: 12d8 02bd eb40 eabd 67f6 23be dc1c dfbd
00000180: 3ac4 443e 6b11 853e 99a2 c73c 06eb 3a3e

encoder.fc.layer.0.bias f4 [10]
-0.16633615 -0.08407769 0.22187793 0.031919423 -0.29863828 -0.12078068 0.018753834 -0.12848385
-0.007103413 0.12908576
00000000: 0654 2abe ed30 acbd f833 633e f1bd 023d
00000010: 1ee7 98be dc5b f7bd a4a1 993c 4591 03be
00000020: bfc3 e8bb 0f2f 043e

encoder.forward_layers.0.layer.0.weight f4 [2, 1, 2, 2]
1.9808354e-05 -7.123347e-05 0.00017085273 4.7593483e-05 7.3010946e-05 -1.9723395e-05 0.00011851515 6.374456e-05
00000000: 1e2a a637 2e63 95b8 ee26 3339 1d9f 4738
00000010: 741d 9938 ab73 a5b7 568b f838 9aae 8538

encoder.forward_layers.0.layer.0.bias f4 [2]
-0.00014052243 -9.741865e-06
00000000: 3459 13b9 fe70 23b7

encoder.forward_layers.1.layer.0.weight f4 [4, 2, 2, 2]
0.1237913 -0.15655532 -0.061885767 0.010757504 -0.07304985 0.22636704 0.13091797 0.112219036
-0.25937402 -0.0560179 -0.10791128 -0.23275253 -0.34206206 -0.33462393 -0.100096114 -0.17855929
0.18358742 0.3641974 -0.18895742 0.21539456 0.13510282 0.21336699 -0.1340751 0.102854826
-0.42187274 -0.1835475 0.12369722 0.1382658 -0.2295721 0.2100833 -0.26473433 0.14925745
00000000: 4b86 fd3d 0a50 20be ee7b 7dbd 3e40 303c
00000010: 299b 95bd c3cc 673e 5c0f 063e 18d3 e53d
00000020: accc 84be 0773 65bd 9700 ddbd ae56 6ebe
00000030: c222 afbe d453 abbe 31ff ccbd 3fd8 36be
00000040: 57fe 3b3e 1578 ba3e 0e7e 41be 6490 5c3e
00000050: 6558 0a3e e07c 5a3e fc4a 09be 8da5 d23d
00000060: b4ff d7be e0f3 3bbe f854 fd3d 8d95 0d3e
00000070: f314 6bbe 1420 573e 428b 87be f2d6 183e

encoder.forward_layers.1.layer.0.bias f4 [4]
0.00025303703 -0.00022309668 -0.00035801975 0.00034575927
00000000: 0eaa 8439 0fef 69b9 99b4 bbb9 0647 b539

encoder.forward_layers.2.layer.0.weight f4 [6, 4, 2, 2]
0.20821902 0.05256981 0.044234727 -0.095386066 0.1009363 -0.09927682 -0.14238054 0.13952869
-0.08972359 -0.14312676 -0.006651151 0.10413114 -0.053422853 -0.089023754 0.03270437 -0.02442566
-0.14441812 0.05982289 0.17100282 -0.06260746 0.081623994 0.045337975 0.022487484 -0.08427301
-0.05675486 0.0058948677 -0.037415482 0.1590194 -0.14319015 0.059740283 0.09104562 -0.10052642
-0.1324081 0.2288786 0.21232098 0.046134457 -0.10543261 -0.11369893 -0.01001798 -0.22262715
0.1131144 -0.023504212 0.035292093 -0.04758745 -0.012579242 -0.046530936 -0.20434022 0.078775324
-0.14324743 -0.028624797 0.18347509 0.03565894 0.13137019 0.017853133 -0.018469075 0.04745836
-0.17420976 0.0022967092 -0.114720486 0.16115023 -0.09141739 0.23162909 -0.09105052 -0.08077797
0.17657661 -0.08894066 0.021655258 -0.14010713 -0.06564768 0.0493669 0.0008839111 0.0037504719
0.024185732 -0.08325234 0.0047131116 -0.095752195 0.14229782 0.11665454 -0.0326606 -0.10073123
0.07501755 -0.062412143 0.072391935 -0.027612345 0.05148079 -0.04743475 -0.033213973 0.1188433
0.06737158 0.0036175132 -0.17719321 0.08160361 -0.121321745 0.086642 -0.10364275 -0.10659298
00000000: 5e37 553e 7153 573d 792f 353d c559 c3bd
00000010: b1b7 ce3d a551 cbbd 34cc 11be 9ce0 0e3e
00000020: 00c1 b7bd d28f 12be e6f1 d9bb b542 d53d
00000030: ecd1 5abd 1652 b6bd 04f5 053d 5218 c8bc
00000040: 58e2 13be d908 753d 5d1b 2f3e 5738 80bd
00000050: 7b2a a73d 50b4 393d ac37 b83c 5497 acbd
00000060: c977 68bd bc29 c13b fa40 19bd fbd5 223e
00000070: 70a0 12be 3ab2 743d 2076 ba3d cce0 cdbd
00000080: fd95 07be 275f 6a3e ac6a 593e 7cf7 3c3d
00000090: 0ded d7bd fcda e8bd 7422 24bc 5ff8 63be
000000a0: 86a8 e73d e88b c0bc 718e 103d 0feb 42bd
000000b0: 2a19 4ebc 3997 3ebd 903e 51be f554 a13d
000000c0: 74af 12be 8d7e eabc e5e0 3b3e 1c0f 123d
000000d0: e885 063e bc40 923c 754c 97bc b363 423d
000000e0: 0b64 32be 6384 163b 93f2 eabd 9104 253e
000000f0: 0a39 bbbd 2d30 6d3e b278 babd ec6e a5bd
00000100: 80d0 343e 8526 b6bd 5e66 b13c 3e78 0fbe
00000110: 4a72 86bd f234 4a3d 45b6 673a 7aca 753b
00000120: 2821 c63c 3480 aabd 7270 9a3b ba19 c4bd
00000130: 85b6 113e 93e8 ee3d 1fc7 05bd 2d4c cebd
00000140: cda2 993d e0a3 7fbd 3942 943d 4933 e2bc
00000150: 85dd 523d f14a 42bd 600b 08bd 1e64 f33d
00000160: 1cfa 893d cd13 6d3b 2372 35be cb1f a73d
00000170: 8977 f8bd 5c71 b13d a642 d4bd 6c4d dabd

encoder.forward_layers.2.layer.0.bias f4 [6]
-0.0005867997 -0.0051328903 0.0045746197 -0.0011347427 -0.0018840283 -0.00095261086
00000000: 76d3 19ba ce31 a8bb b1e6 953b a6bb 94ba
00000010: 80f1 f6ba a2b8 79ba

encoder.forward_layers.3.layer.0.weight f4 [8, 6, 2, 2]
0.09775707 -0.14317492 -0.12839504 -0.08136937 0.08521509 -0.21469605 -0.18700787 0.12541917
0.044879034 -0.0059675006 0.11283564 0.10820403 -0.02846042 -0.029679071 -0.01873536 -0.016912147
0.09477989 0.009642753 0.0676601 -0.2280198 0.05150289 0.06965032 -0.17427646 -0.10721022
0.17447224 0.08334015 -0.18758227 -0.048255954 0.12701748 0.07875402 -0.03181823 -0.09717251
0.02759999 0.098526664 -0.12996654 -0.035942987 0.0607475 0.09197662 -0.08855696 0.05240239
-0.24496274 0.03461078 0.05267451 0.12654305 -0.12488098 0.1112154 -0.1516878 -0.12476651
0.20286654 -0.080865845 -0.1204113 0.012613016 0.022332972 0.07171533 0.17999807 -0.06772802
0.05221081 -0.07968834 0.0308808 0.009205137 -0.008911067 -0.1244171 0.059706602 0.10577641
-0.1168409 -0.031224748 -0.038659103 0.19707371 -0.2155701 -0.15885094 -0.090414144 0.041709244
-0.017393885 -0.0805214 0.0905595 -0.09029004 0.051496144 -0.13612558 -0.061715998 0.057039794
0.16342992 -0.028665885 0.13752489 -0.065766625 -0.15824634 -0.011756395 0.18861067 -0.11092373
-0.11518632 0.122858964 0.008917295 -0.17370698 -0.078341156 0.1702997 -0.13425614 -0.09796672
-0.05278075 -0.07301991 -0.06195203 0.11512537 0.19114862 -0.087356426 -0.18423831 0.13072212
0.13103181 0.14722304 -0.060484942 0.11003404 -0.03429175 0.03252058 -0.048619892 -0.076750875
0.056752346 0.040480044 0.04755989 -0.08851774 -0.12414115 -0.1302809 -0.06831316 -0.16415145
-0.12380607 0.18562764 0.07393868 -0.0615369 0.01642322 -0.021408468 -0.04367231 0.11611728
0.071442135 -0.29580247 -0.01627937 0.056419265 -0.1365705 0.100558594 -0.054403428 0.09284223
0.074004486 0.06024894 0.03532161 0.029512526 -0.114530094 -0.112032965 -0.03995985 0.1055868
0.0433793 -0.1021919 -0.13348848 0.2445275 -0.2204961 -0.05548675 -0.09315263 0.14466377
-0.044624772 0.080938086 -0.047179107 0.1818443 0.018014107 -0.058320533 0.11054474 0.013927954
-0.009124849 -0.046778157 0.17207578 -0.11979928 -0.007186593 0.0380279 -0.0726987 0.08199726
-0.07629057 -0.06253435 0.039910235 -0.16865112 0.09447312 0.037856374 -0.02526726 -0.064951345
-0.06917931 0.21616493 0.196571 -0.1411725 0.104893774 0.045789 -0.06973917 0.12660408
0.034255523 -0.072022475 0.035830636 0.050083395 0.17024156 -0.12225935 0.10259373 -0.123884045
00000000: dc34 c83d 729c 12be fd79 03be fca4 a6bd
00000010: 4085 ae3d 48d9 5bbe fe7e 3fbe e26d 003e
00000020: 14d3 373d 068b c3bb 5f16 e73d 139a dd3d
00000030: d425 e9bc 8621 f3bc e67a 99bc 588b 8abc
00000040: f51b c23d a3fc 1d3c 6191 8a3d 067e 69be
00000050: b2f4 523d d4a4 8e3d 8775 32be 0891 dbbd
00000060: daa8 323e 3eae aa3d 9115 40be 09a8 45bd
00000070: df10 023e ca49 a13d d553 02bd 6202 c7bd
00000080: 6019 e23c 59c8 c93d f315 05be f438 13bd
00000090: 5fd2 783d 3d5e bc3d 5a5d b5bd e3a3 563d
000000a0: 83d7 7abe 09c4 0d3d 3ac1 573d 8094 013e
000000b0: 99c1 ffbd e6c4 e33d 0c54 1bbe 9685 ffbd
000000c0: 3fbc 4f3e fe9c a5bd 339a f6bd d3a6 4e3c
000000d0: a3f3 b63c 7ddf 923d 6a51 383e fdb4 8abd
000000e0: 01db 553d a433 a3bd bbf9 fc3c 25d1 163c
000000f0: b9ff 11bc 64ce febd e98e 743d 4da1 d83d
00000100: 484a efbd 0bcb ffbc 0259 1ebd b1cd 493e
00000110: 69be 5cbe d2a9 22be 0d2b b9bd 50d7 2a3d
00000120: 9f7d 8ebc 67e8 a4bd 4277 b93d fce9 b8bd
00000130: 9fed 523d 8164 0bbe eac9 7cbd 8fa2 693d
00000140: 2c5a 273e b8d4 eabc 53d3 0c3e a7b0 86bd
00000150: 540b 22be e59d 40bc 2823 413e fb2b e3bd
00000160: cee6 ebbd 7b9d fb3d d919 123c 3ee0 31be
00000170: 5471 a0bd 0b63 2e3e 717a 09be c7a2 c8bd
00000180: a130 58bd 768b 95bd 69c1 7dbd dac6 eb3d
00000190: 77bc 433e ede7 b2bd f8a8 3cbe 05dc 053e
000001a0: 342d 063e a3c1 163e 0fbf 77bd 8759 e13d
000001b0: 8275 0cbd 4d34 053d a725 47bd 902f 9dbd
000001c0: 2675 683d 67ce 253d 29ce 423d ca48 b5bd
000001d0: b73d febd 5b68 05be c5e7 8bbd 5117 28be
000001e0: 098e fdbd 2c15 3e3e 2a6d 973d 1e0e 7cbd
000001f0: fd89 863c d060 afbc bce1 32bd e6ce ed3d
00000200: 4150 923d 6c73 97be 505c 85bc e317 673d
00000210: 23d9 0bbe aaf1 cd3d 21d6 5ebd 1124 be3d
00000220: aa8f 973d 98c7 763d 64ad 103d 41c4 f13c
00000230: c18e eabd 8a71 e5bd f1ac 23bd e43d d83d
00000240: 7eae 313d fd49 d1bd 34b1 08be 6b65 7a3e
00000250: bbc9 61be 1346 63bd cec6 bebd bd22 143e
00000260: 77c8 36bd dec2 a53d e13e 41bd 6435 3a3e
00000270: 5292 933c 83e1 6ebd 4865 e23d 1332 643c
00000280: 6480 15bc 749a 3fbd a234 303e 5359 f5bd
00000290: 837d ebbb 25c3 1b3d 0ee3 94bd 2eee a73d
000002a0: 3b3e 9cbd 0212 80bd ea78 233d e1b2 2cbe
000002b0: 207b c13d 490f 1b3d 49fd cebc 3605 85bd
000002c0: e2ad 8dbd 575a 5d3e e949 493e 868f 10be
000002d0: 8cd2 d63d 3f8d 3b3d 69d3 8ebd 80a4 013e
000002e0: 854f 0c3d 8580 93bd 25c3 123d 3f24 4d3d
000002f0: ce53 2e3e 1c63 fabd a91c d23d ebb6 fdbd

encoder.forward_layers.3.layer.0.bias f4 [8]
-0.0009083509 0.00027720194 0.00027623953 0.004973744 0.00068354857 -0.0026442574 -0.00036331706 0.00092226657
00000000: 661e 6eba 6a55 9139 3ed4 9039 cafa a23b
00000010: 2b30 333a 474b 2dbb 977b beb9 43c4 713a

encoder.forward_layers.4.layer.0.weight f4 [10, 8, 2, 2]
-0.073713966 0.11930438 -0.066153586 0.09156748 -0.13543595 0.08805348 -0.017919939 0.09978095
0.0047597503 0.17832854 -0.044998236 -0.085140556 -0.060763814 -0.08187479 -0.12300935 -0.1255168
0.10620452 -0.11563238 0.06394138 0.011626221 0.071338885 -0.12222106 0.03343583 -0.057261683
0.1832011 -0.072615676 0.24918818 -0.09141656 0.0018894385 -0.056581624 -0.16581695 0.017790958
-0.112746686 0.012851949 -0.11868187 -0.11776059 -0.0046637584 -0.093477584 -0.24645211 0.1234207
0.11739066 -0.059935525 0.20244816 -0.004215684 -0.04875078 -0.0709458 0.07322773 -0.24415964
0.018503273 0.16556485 -0.038003244 -0.087526456 -0.10370866 -0.004229184 0.022618072 -0.06091037
-0.1458917 -0.0077471724 -0.059078276 0.18619329 -0.04464934 0.08370386 -0.10717572 -0.087114125
-0.21763647 0.07532221 -0.052212693 -0.16480035 0.2187518 0.13672982 0.048764344 -0.10203315
0.27148202 -0.07403001 0.23592305 0.29454437 0.10774062 -0.07622885 0.30208638 -0.09794543
-0.07945303 0.005739062 0.0507813 0.12950763 0.14866287 0.053176396 -0.09862063 0.0018800762
0.18593346 0.08740724 0.10335241 0.24108635 -0.060027387 -0.07775858 0.16468602 -0.01103451
0.24043398 -0.23449725 0.12358254 0.17600024 -0.14736539 -0.12131367 0.14877877 0.1275588
-0.08080675 -0.07737914 -0.18739277 0.022832425 -0.09859113 0.048750844 0.04993165 0.009417351
0.10923333 0.027897816 0.16628851 -0.117602855 -0.19166428 -0.02470453 -0.16340254 -0.17998305
0.09334481 0.13521591 0.068331726 0.22566715 -0.024400901 0.0802066 0.016493574 0.1910748
-0.14105003 -0.1868364 0.10519869 -0.10014261 -0.008472525 -0.025462696 0.13029158 0.13250023
0.018412791 0.029470585 0.1460088 0.056924097 -0.12431062 0.061269052 0.04827888 -0.22737664
0.103827186 0.10272945 0.094647035 -0.13959575 0.11378091 0.10741778 -0.0023567195 0.018845974
0.16425651 0.113292515 0.086443976 0.25748712 0.05012257 -0.085353315 0.17691086 0.07822089
0.06059309 -0.18650755 -0.09192335 -0.10632831 0.042123746 -0.03386202 0.053147145 -0.101088636
0.17265296 0.14546017 0.09475294 -0.023718871 -0.038225446 0.11596411 0.08951563 0.19055942
0.111993656 0.19706823 0.03531892 0.08752018 -0.05827085 0.10786898 -0.08901796 0.08288927
-0.023767076 -0.07218064 0.15058611 -0.058437724 -0.23622987 0.057061348 -0.3171733 -0.1819257
0.0073820995 0.07767742 -0.08046818 0.04303723 0.05171472 0.3145699 0.1160784 -0.15032059
-0.030463386 -0.2673536 -0.2870303 -0.1707267 0.2260015 0.28060853 -0.03857594 0.16574244
-0.19430016 -0.0009375159 -0.042510703 0.05234889 -0.014181895 -0.12117838 0.052872796 -0.04135704
-0.26918817 -0.04053353 -0.07289588 -0.034699947 0.05499891 0.11571051 0.12251954 0.008137197
0.21443409 0.10511913 0.13486217 0.03192707 0.11332509 -0.03507627 0.07501228 -0.08215789
0.1816992 -0.09866507 0.04443256 0.062373854 -0.112471834 -0.12917888 -0.14309421 0.06816086
0.011036161 -0.28166425 -0.00079034845 -0.083459295 -0.05045006 -0.058930542 -0.13374102 -0.04976863
0.16640654 0.09480994 0.20446959 0.06383772 -0.13094367 0.012070664 0.17593239 0.1268549
00000000: 59f7 96bd db55 f43d 887b 87bd bb87 bb3d
00000010: b9af 0abe 6255 b43d d6cc 92bc f459 cc3d
00000020: aef7 9b3b c29b 363e 1250 38bd 2c5e aebd
00000030: 7ae3 78bd f8ad a7bd 53ec fbbd 7a87 00be
00000040: c181 d93d abd0 ecbd b3f3 823d e87b 3e3c
00000050: 1f1a 923d 094f fabd 02f4 083d 3a8b 6abd
00000060: 1299 3b3e 87b7 94bd 302b 7f3e 9b38 bbbd
00000070: 09a7 f73a 22c2 67bd ebcb 29be 58be 913c
00000080: bce7 e6bd fb90 523c 7b0f f3bd 772c f1bd
00000090: 71d2 98bb 2d71 bfbd f15d 7cbe fec3 fc3d
000000a0: 846a f03d f47e 75bd 924e 4f3e b823 8abb
000000b0: e6ae 47bd 084c 91bd 6cf8 953d fc04 7abe
000000c0: 2d94 973c d589 293e 4aa9 1bbd 1241 b3bd
000000d0: 3565 d4bd f794 8abb 8949 b93c 277d 79bd
000000e0: a264 15be fedb fdbb 10fc 71bd 74a9 3e3e
000000f0: 3ae2 36bd ee6c ab3d f27e dbbd e468 b2bd
00000100: 18dc 5ebe 8842 9a3d fadc 55bd 6cc1 28be
00000110: 7900 603e e702 0c3e 1fbd 473d c2f6 d0bd
00000120: b1ff 8a3e 0c9d 97bd d095 713e 85ce 963e
00000130: 1da7 dc3d df1d 9cbd 11ab 9a3e 9d97 c8bd
00000140: 45b8 a2bd be0e bc3b 0d00 503d a69d 043e
00000150: 143b 183e 7ecf 593d 9df9 c9bd e46c f63a
00000160: 5765 3e3e 9102 b33d 6eaa d33d 57df 763e
00000170: 47df 75bd e43f 9fbd 74a3 283e 17ca 34bc
00000180: 5334 763e 0c20 70be d818 fd3d 6839 343e
00000190: f4e6 16be 4d73 f8bd 7659 183e c69e 023e
000001a0: 027e a5bd f478 9ebd e4e3 3fbe 110b bb3c
000001b0: 25ea c9bd f7ae 473d 2185 4c3d 3c4b 1a3c
000001c0: b9b5 df3d f689 e43c 8947 2a3e c4d9 f0bd
000001d0: a443 44be 2861 cabc ff52 27be 7a4d 38be
000001e0: 902b bf3d 0a76 0a3e 81f1 8b3d 4a15 673e
000001f0: 66e4 c7bc 5c43 a43d 881d 873c 1da9 433e
00000200: 6b6f 10be 0b52 3fbe 6972 d73d 9217 cdbd
00000210: 58d0 0abc 2597 d0bc 286b 053e 24ae 073e
00000220: 6cd6 963c 4c6c f13c 5583 153e 3e29 693d
00000230: 9196 febd 42f5 7a3d 13c0 453d 6cd5 68be
00000240: 59a3 d43d d163 d23d 4ed6 c13d 30f2 0ebe
00000250: f705 e93d dafd db3d 3173 1abb df62 9a3c
00000260: dc32 283e e805 e83d 8a09 b13d 5ad5 833e
00000270: 534d 4d3d b8cd aebd 1f28 353e 4632 a03d
00000280: 7630 783d d6fb 3ebe 4f42 bcbd a8c2 d9bd
00000290: f389 2c3d e7b2 0abd d2b0 593d 8f07 cfbd
000002a0: f0cb 303e 83f3 143e d40d c23d 144e c2bc
000002b0: 4992 1cbd 977e ed3d f853 b73d 0222 433e
000002c0: ee5c e53d 41cc 493e 92aa 103d c83d b33d
000002d0: 6aad 6ebd 69ea dc3d 0c4f b6bd d9c1 a93d
000002e0: 2cb3 c2bc 72d3 93bd 3f33 1a3e 655c 6fbd
000002f0: 3ee6 71be 29b9 693d 8a64 a2be bb4a 3abe
00000300: 8ae5 f13b 5715 9f3d 80cc a4bd ce47 303d
00000310: d0d2 533d 4e0f a13e 83ba ed3d a4ed 19be
00000320: 5a8e f9bc 92e2 88be a3f5 92be fbd2 2ebe
00000330: f06c 673e ecab 8f3e ce01 1ebd 63b8 293e
00000340: 9ff6 46be a1c3 75ba b41f 2ebd ca6b 563d
00000350: 2e5b 68bc 5f2c f8bd 2591 583d 0066 29bd
00000360: 08d3 89be 7d06 26bd 6f4a 95bd 8821 0ebd
00000370: 8946 613d a2f9 ec3d 86eb fa3d e151 053c
00000380: 9c94 5b3e b348 d73d 4f19 0a3e f6c5 023d
00000390: fc16 e83d 23ac 0fbd 0aa0 993d 6542 a8bd
000003a0: 5b0f 3a3e ea10 cabd ebfe 353d ba7b 7f3d
000003b0: a257 e6bd 7847 04be 4a87 12be ec97 8b3d
000003c0: 04d1 343c 4c36 90be 632f 4fba b5ec aabd
000003d0: b9a4 4ebd 2761 71bd 68f3 08be 31da 4bbd
000003e0: 7a66 2a3e b72b c23d 7a60 513e 5abd 823d
000003f0: 1916 06be 09c4 453c 9f27 343e 40e6 013e

encoder.forward_layers.4.layer.0.bias f4 [10]
-0.15831384 0.09371057 0.1349993 0.19058414 -0.27036807 -0.19930612 0.1384738 0.16347948
-0.04856809 -0.16602622
00000000: 061d 22be 54eb bf3d 423d 0a3e 7d28 433e
00000010: af6d 8abe e716 4cbe 13cc 0d3e 2a67 273e
00000020: 55ef 46bd c702 2abe

encoder.backward_layers.0.layer.0.weight f4 [2, 1, 2, 2]
-0.31308568 -0.16630548 -0.24797702 -0.19002455 0.26890516 -0.48123157 0.33032703 0.333148
00000000: c44c a0be fc4b 2abe b0ed 7dbe cc95 42be
00000010: f0ad 893e fc63 f6be a020 a93e 6092 aa3e

encoder.backward_layers.1.layer.0.weight f4 [4, 2, 2, 2]
0.1916885 -0.02860276 0.09550614 0.088210836 -0.083590455 0.41088095 0.22151133 0.20984903
-0.25915748 0.020133108 -0.03497317 -0.29552925 -0.6252328 -0.6237366 -0.19402415 -0.35274196
0.2810505 0.49071318 0.25219023 -0.003970858 -0.152593 0.13780138 0.1908744 0.09182223
-0.3800762 -0.07230268 -0.13869637 -0.061389565 -0.108296216 0.34597322 -0.08324301 0.097035974
00000000: fd49 443e 5650 eabc b998 c33d e2a7 b43d
00000010: 7931 abbd fd5e d23e ded3 623e aae2 563e
00000020: 4ab0 84be 30ee a43c 0740 0fbd 9c4f 97be
00000030: 420f 20bf 34ad 1fbf 44ae 46be 989a b4be
00000040: dae5 8f3e c23e fb3e 141f 813e f91d 82bb
00000050: 5741 1cbe ce1b 0d3e 9474 433e 4b0d bc3d
00000060: 5999 c2be 6d13 94bd 6c06 0ebe a073 7bbd
00000070: 68ca ddbd 6723 b13e 507b aabd ccba c63d

encoder.backward_layers.1.layer.0.bias f4 [2]
-0.00024943697 0.00012855684
00000000: ddc6 82b9 37cd 0639

encoder.backward_layers.2.layer.0.weight f4 [6, 4, 2, 2]
-0.15545262 -0.016104003 -0.08980767 -0.16132708 -0.014279589 0.030876543 0.008025163 -0.064526394
0.1383 0.20923343 0.12805033 0.08335426 0.056226037 -0.018555 -0.041259017 0.08891519
0.14024346 -0.07258639 0.25365657 0.3002251 0.006029684 -0.026450094 -0.110949546 0.059459142
-0.027139807 0.108403705 -0.29771277 -0.13430203 -0.0877455 -0.10768464 0.19337168 0.15117379
-0.008584371 -0.09343811 -0.085331 -0.035876967 0.0022735917 -0.050209936 -0.1028614 -0.027200969
-0.24868183 -0.091952376 -0.028963702 -0.024065712 0.0579399 0.09704091 0.018667586 0.036916234
-0.08175516 -0.002126414 -0.2315863 -0.038616844 0.16290326 0.049308702 -0.025414867 0.09731307
0.27237648 0.3504844 0.18641543 0.13534817 -0.18994892 0.069854274 -0.14545275 -0.15554762
0.17127724 0.09552194 -0.08620839 -0.11964551 -0.021261204 -0.019620068 -0.10499176 -0.1247869
-0.19316623 -0.24647394 0.07705336 0.023855593 0.14824282 -0.056278437 -0.094352104 0.14952098
-0.0366077 0.11459968 -0.068587996 -0.0022675237 0.10740833 0.11416177 0.037122045 0.030123278
0.04448298 0.40072596 0.4051949 0.080992326 0.07870693 0.055539556 -0.1445309 -0.03444745
00000000: f92e 1fbe 8bec 83bc 15ed b7bd ed32 25be
00000010: f0f4 69bc cef0 fc3c f97b 033c 6a26 84bd
00000020: 849e 0d3e 4a41 563e a01f 033e a3b5 aa3d
00000030: 464d 663d a800 98bc 37ff 28bd 2b19 b63d
00000040: fb9b 0f3e 2ca8 94bd 46df 813e 1bb7 993e
00000050: a894 c53b dead d8bc 8439 e3bd 6e8b 733d
00000060: 4d54 debc c302 de3d cf6d 98be 7986 09be
00000070: eab3 b3bd c489 dcbd 3a03 463e 4dcd 1a3e
00000080: 76a5 0cbc 7b5c bfbd 05c2 aebd baf3 12bd
00000090: 8a00 153b efa8 4dbd ffa8 d2bd 91d4 debc
000000a0: 73a6 7ebe 8751 bcbd 4945 edbc 7525 c5bc
000000b0: 6352 6d3d 62bd c63d c4ec 983c 7a35 173d
000000c0: 406f a7bd 4f5b 0bbb f624 6dbe b22c 1ebd
000000d0: 1dd0 263e ecf7 493d d732 d0bc 134c c73d
000000e0: ee74 8b3e b172 b33e b0e3 3e3e b698 0a3e
000000f0: f881 42be c20f 8f3d 91f1 14be e047 1fbe
00000100: 4d63 2f3e 02a1 c33d 068e b0bd b508 f5bd
00000110: fa2b aebc 44ba a0bc eb05 d7bd 4690 ffbd
00000120: 5ecd 45be aa63 7cbe 27ce 9d3d ce6c c33c
00000130: f7cc 173e 3884 66bd ad3b c1bd 071c 193e
00000140: f5f1 15bd 3db3 ea3d dd77 8cbd bc9a 14bb
00000150: e6f8 db3d a5cd e93d 490d 183d 18c5 f63c
00000160: c933 363d f42b cd3e b575 cf3e 4edf a53d
00000170: 1931 a13d 727d 633d e9ff 13be c518 0dbd

encoder.backward_layers.2.layer.0.bias f4 [4]
0.00076195505 8.825552e-05 -7.242048e-05 0.00022956633
00000000: f0bd 473a d215 b938 73e0 97b8 beb7 7039

encoder.backward_layers.3.layer.0.weight f4 [8, 6, 2, 2]
-0.01422998 0.037756212 0.045518678 0.0142684225 -0.003155463 0.06277395 0.061020013 -0.039756574
-0.0020454 -0.006099409 -0.020685071 -0.040559527 -0.04214274 -0.032984782 -0.03317436 -0.048596624
-0.035295755 -0.010921699 -0.041452095 0.059768513 -0.005789685 -0.0019805443 0.055376187 0.032987554
-0.041740756 -0.03798556 0.022050183 0.003966606 -0.032501962 -0.021394456 0.026598291 0.03195977
0.0015487641 -0.041930333 0.03706567 0.024846774 -0.06071399 -0.023474159 0.0009572503 -0.01526541
-0.041575268 -0.08393193 -0.11703558 -0.12653252 0.15108857 0.14593884 0.17547616 0.123356536
-0.05611439 0.010155429 0.022134425 -0.02199079 0.0068771048 -0.034252197 -0.055933025 0.014862055
-0.016668322 0.019171853 -0.0019428318 -0.011847716 0.0061009633 0.042817637 -0.021247247 -0.022148417
0.02040911 0.0010652643 -0.0015290783 -0.06350971 0.064440124 0.038118254 0.01604275 -0.038886607
0.012187799 0.012384252 -0.02469834 0.031692628 0.03275491 0.0784193 0.051507667 0.024672017
-0.004881925 0.04951589 0.006721891 0.056050558 0.118877165 0.09875202 0.06234872 0.072882004
0.12677985 0.035010505 0.058692392 0.114698835 0.04994506 0.021509845 0.06499218 0.03404565
0.019571176 0.022718083 0.010487758 -0.03716407 -0.036657475 0.014714147 0.046644334 -0.02482834
-0.046210606 -0.045819838 0.009649356 -0.038593844 0.014836029 0.0011992729 0.006658064 0.044493753
-0.0017568277 0.008245382 0.0071518635 0.037182495 0.022148307 0.015472152 0.0023997887 0.031209894
0.034400743 -0.05231497 -0.034311466 0.018862683 -0.07560506 -0.069488525 -0.07523096 -0.08437098
-0.002656012 0.0808863 0.017899891 0.011960088 0.018862516 -0.048961632 -0.0056758528 -0.044677597
-0.081687175 -0.08824244 -0.063283324 -0.08813912 0.1409356 0.15744632 0.13782239 0.13265511
-0.036311895 0.024178753 0.03679545 -0.06538092 0.047490094 0.011571947 0.01118017 -0.037731085
0.0047994074 -0.024025923 0.004440304 -0.0494701 -0.040636443 -0.01745509 -0.0614359 -0.045696568
-0.0469904 -0.05146227 -0.10641233 -0.033639066 0.078408696 0.08480341 0.11205085 0.07476001
0.013671266 0.011086217 -0.0031225253 0.021741481 0.040834114 0.05288394 0.07838534 0.05842752
0.024957612 -0.03163783 -0.024625085 0.02741763 -0.011757193 -0.01968692 0.025879908 -0.029804414
0.047765255 0.07106855 0.045579392 0.054992944 -0.14261931 -0.107870065 -0.13312548 -0.074275464
00000000: dd24 69bc 42a6 1a3d cb71 3a3d 1ac6 693c
00000010: e2cb 4ebb a18f 803d 1ff0 793d cad7 22bd
00000020: 1e0c 06bb 8ddd c7bb bd73 a9bc bf21 26bd
00000030: de9d 2cbd 0d1b 07bd d6e1 07bd 410d 47bd
00000040: 4892 10bd edf0 32bc acc9 29bd d4cf 743d
00000050: 66b7 bdbb 05cc 01bb 24d2 623d f51d 073d
00000060: 5bf8 2abd bf96 1bbd 96a2 b43c 4efa 813b
00000070: c720 05bd 6d43 afbc a9e4 d93c 3fe8 023d
00000080: e6ff ca3a 24bf 2bbd 2cd2 173d 768b cb3c
00000090: 3caf 78bd e14c c0bc fbef 7a3a c51b 7abc
000000a0: d44a 2abd 81e4 abbd 5ab0 efbd be91 01be
000000b0: f6b6 1a3e fe70 153e 06b0 333e 5aa2 fc3d
000000c0: 34d8 65bd f562 263c 4153 b53c 0726 b4bc
000000d0: 5659 e13b 084c 0cbd 071a 65bd fa7f 733c
000000e0: 018c 88bc 4a0e 9d3c 9ea6 feba ec1c 42bc
000000f0: 97ea c73b 8c61 2f3d b50e aebc 9970 b5bc
00000100: 0131 a73c 57a0 8b3a 5b6b c8ba 6111 82bd
00000110: 2ff9 833d e321 1c3d 166c 833c 9047 1fbd
00000120: 56af 473c 51e7 4a3c 2c54 cabc 21d0 013d
00000130: 032a 063d 4c9a a03d b4f9 523d f81c ca3c
00000140: 8ef8 9fbb 2dd1 4a3d 4f43 dc3b 4595 653d
00000150: df75 f33d 803e ca3d 5f61 7f3d 2943 953d
00000160: 94d2 013e 2d67 0f3d 6f67 703d 39e7 ea3d
00000170: 3193 4c3d 6a35 b03c 9f1a 853d 7473 0b3d
00000180: bb53 a03c 461b ba3c d8d4 2b3c 5a39 18bd
00000190: 2626 16bd 9b13 713c 210e 3f3d ce64 cbbc
000001a0: 5547 3dbd 95ad 3bbd 5518 1e3c 9414 1ebd
000001b0: d112 733c ec30 9d3a e42b da3b 153f 363d
000001c0: 5b45 e6ba a417 073c 2e5a ea3b ac4c 183d
000001d0: 5e70 b53c e97e 7d3c c645 1d3b e4ab ff3c
000001e0: cbe7 0c3d 3948 56bd 2e8a 0cbd ea85 9a3c
000001f0: d3d6 9abd 0050 8ebd b112 9abd b1ca acbd
00000200: 7d10 2ebb b7a7 a53d cba2 923c 3ff4 433c
00000210: 9085 9a3c fe8b 48bd 81fc b9bb dbff 36bd
00000220: 9b4b a7bd 74b8 b4bd b09a 81bd 4882 b4bd
00000230: 6c51 103e 9c39 213e 5021 0d3e bed6 073e
00000240: c8bb 14bd 8512 c63c d3b6 163d 6fe6 85bd
00000250: f984 423d 4398 3d3c 082d 373c e98b 1abd
00000260: 5944 9d3b 03d2 c4bc f87f 913b 29a1 4abd
00000270: 6672 26bd fafd 8ebc 36a4 7bbd 532c 3bbd
00000280: 0179 40bd 1aca 52bd b5ee d9bd 1ec9 09bd
00000290: bd94 a03d 69ad ad3d eb7a e53d c71b 993d
000002a0: 72fd 5f3c f7a2 353c 48a3 4cbb 311b b23c
000002b0: ac41 273d d59c 583d 7e88 a03d b251 6f3d
000002c0: e873 cc3c ab96 01bd 8cba c9bc f09a e03c
000002d0: 3ea1 40bc 7746 a1bc 1a02 d43c 6328 f4bc
000002e0: 80a5 433d 638c 913d 75b1 3a3d 4840 613d
000002f0: cc0a 12be fbea dcbd 0c52 08be bc1d 98bd

encoder.backward_layers.3.layer.0.bias f4 [6]
-0.00036623992 -0.0031294518 0.002601456 -0.00085733953 -0.0014206697 -0.00034890292
00000000: e403 c0b9 7d17 4dbb 307d 2a3b 15bf 60ba
00000010: c435 baba f5ec b6b9

encoder.backward_layers.4.layer.0.weight f4 [10, 8, 2, 2]
-0.00058005896 -0.00027556205 -0.0005900919 -0.0003323901 0.00015758933 0.00020243938 0.0001460631 0.00019947227
0.00030820168 0.00040622355 0.00035623356 0.00031975057 -0.0023844643 -0.0023957146 -0.0023948436 -0.0024004276
-0.0007268911 -0.0007296202 -0.0007242595 -0.00072112406 0.0013513251 0.0013298291 0.0013412685 0.0013178203
-0.00012908936 -0.00018209661 -0.000115234216 -0.00024960493 -0.00052618294 -0.00052048673 -0.00053597614 -0.0005121416
-0.0013622796 -0.0009110477 -0.0014162535 -0.0014344357 -0.0004889575 -0.0005057904 -0.0006058431 -0.00045263016
0.0008138423 0.00047388405 0.00088405353 0.0004954533 0.0021991376 0.0021997828 0.0022877823 0.0020386141
0.0006164542 0.0006150515 0.0006041416 0.0005931249 -0.0010680347 -0.0010470196 -0.0010171578 -0.0010143392
-0.00078883447 -0.0005914573 -0.0005319225 -0.00024199416 -1.31302295e-05 3.3372748e-05 -0.0001324792 -9.028502e-05
0.0009291446 0.0010441266 0.0010858357 0.00087656773 8.780025e-05 8.915162e-05 6.982473e-05 2.3965956e-06
-0.0006552846 -0.00079314056 -0.00074000866 -0.0006675785 0.0023414278 0.0022257955 0.0024900155 0.0021780715
0.0010307253 0.0010185103 0.0010150475 0.0010218166 -0.0013298002 -0.0013188117 -0.0012911322 -0.0013422273
0.0006053858 0.0005260284 0.0005889923 0.0006083082 0.00034201753 0.000389994 0.0003510358 0.00042243148
0.0011837231 0.0008907316 0.001140735 0.0010551711 0.00011310156 0.000115691124 0.00015276678 0.00015039607
-0.0007193273 -0.0006971238 -0.0007566337 -0.00070132694 0.0020237972 0.0020602217 0.002024047 0.0020000506
0.0009355094 0.00091717567 0.00092558056 0.00092410855 -0.0011994793 -0.0011814182 -0.0012050557 -0.0011811369
0.0005731244 0.00056275417 0.00057753583 0.00058732135 0.00022859235 0.0002195545 0.00020011488 0.00023354244
-0.0010790592 -0.0009501273 -0.00095743564 -0.0009863802 -9.544863e-05 -0.000121012636 -0.0001063651 -0.00011862723
0.0006208286 0.00062119646 0.00066101877 0.0006470313 -0.0019319946 -0.0018845529 -0.0018991345 -0.0019222329
-0.00079937687 -0.00080121966 -0.00079157454 -0.0007907377 0.0012029419 0.0012057532 0.0012032086 0.0011970521
-0.0005595711 -0.00052530685 -0.00059593335 -0.0005167031 -0.0003696973 -0.00033906646 -0.0003381958 -0.00032496412
-0.00055556133 -0.0006632879 -0.0007518528 -0.00070442655 0.00012729438 0.000107214786 0.000121788216 8.682608e-05
0.00043402633 0.0004511293 0.00044258183 0.0004224128 -0.0021204732 -0.0020714898 -0.0020867332 -0.0020472824
-0.0007109438 -0.00070201245 -0.0007161442 -0.00071497494 0.0011788718 0.0011756495 0.0011674323 0.0011885634
-0.00022407886 -0.00023765002 -0.00021336987 -0.00022082312 -0.0004443658 -0.0003836096 -0.00045185522 -0.00045136517
2.5421949e-05 0.00010398436 -0.00011634832 -1.3134889e-05 -0.00027659204 -0.00019355938 -0.00023976696 -0.00032845995
1.0703556e-06 -0.00015599129 -0.00024965368 -0.0001230733 0.0020184822 0.0020455876 0.0018816217 0.001979128
0.0006113524 0.0006187042 0.000615117 0.00061861024 -0.00094134687 -0.0009663455 -0.0009505052 -0.0009324284
-0.00037129896 -0.00021315183 -0.000163571 -0.00021452762 0.0002877607 0.00027328072 0.0003098779 0.0002226615
0.0012804505 0.0010490438 0.0011506826 0.001053061 0.0001753605 0.0001546348 0.00020337816 0.00015257765
-0.0006501416 -0.00070936116 -0.0006896286 -0.00068142073 0.0021528266 0.0021704133 0.0021074442 0.0021697877
0.0008995063 0.0008783399 0.000893242 0.0008860821 -0.0013045213 -0.0013111995 -0.0013086149 -0.0012950613
0.00073958404 0.00063444517 0.0007283579 0.0005618679 0.0004114194 0.00038102188 0.00043457575 0.0004150849
00000000: 190f 18ba 5079 90b9 66b0 1aba a544 aeb9
00000010: 903e 2539 e845 5439 8428 1939 6e29 5139
00000020: 2196 a139 67fa d439 dcc4 ba39 32a4 a739
00000030: ac44 1cbb 6c01 1dbb cff2 1cbb 7e50 1dbb
00000040: d68c 3eba fc43 3fba 3bdc 3dba d109 3dba
00000050: f21e b13a a94d ae3a 81cd af3a b6ba ac3a
00000060: 295c 07b9 30f1 3eb9 e6a9 f1b8 68dd 82b9
00000070: 8aef 09ba 4671 08ba c080 0cba 3e41 06ba
00000080: 858e b2ba 60d3 6eba 95a1 b9ba ad03 bcba
00000090: 622d 00ba 0597 04ba 71d1 1eba fe4e edb9
000000a0: 0858 553a a473 f839 d4bf 673a 4fe1 013a
000000b0: 681f 103b 3b2a 103b 9eee 153b 459a 053b
000000c0: 8b99 213a 683b 213a 425f 1e3a f07b 1b3a
000000d0: 4cfd 8bba 263c 89ba 2752 85ba 93f3 84ba
000000e0: c9c9 4eba 070c 1bba b770 0bba d0bf 7db9
000000f0: e849 5cb7 b7f9 0b38 1dea 0ab9 6757 bdb8
00000100: d791 733a 13db 883a 9a52 8e3a 77c9 653a
00000110: 6621 b838 e9f6 ba38 de6e 9238 33d5 2036
00000120: 68c7 2bba c3ea 4fba 24fd 41ba 6f00 2fba
00000130: a472 193b a7de 113b 872f 233b fabd 0e3b
00000140: 6719 873a 897f 853a 580b 853a 7aee 853a
00000150: b14c aeba fadb acba 353b a9ba aded afba
00000160: c1b2 1e3a 2be5 093a 9b66 1a3a df76 1f3a
00000170: d150 b339 1c78 cc39 3a0b b839 cb79 dd39
00000180: 2827 9b3a fc7f 693a b784 953a ab4d 8a3a
00000190: f030 ed38 339f f238 0530 2039 a3b3 1d39
000001a0: 3d91 3cba 30bf 36ba d458 46ba 41d9 37ba
000001b0: afa1 043b c904 073b e0a5 043b 4813 033b
000001c0: f93c 753a 9e6e 703a a9a2 723a e03f 723a
000001d0: d937 9dba d1d9 9aba f6f2 9dba 61d0 9aba
000001e0: ba3d 163a cb85 133a c665 173a 78f6 193a
000001f0: 4bb2 6f39 3638 6639 eed5 5139 12e3 7439
00000200: 386f 8dba f711 79ba 6bfc 7aba 6d49 81ba
00000210: 982b c8b8 2ac8 fdb8 5410 dfb8 82c7 f8b8
00000220: 1abf 223a cad7 223a 3848 2d3a 899d 293a
00000230: fb3a fdba 1a03 f7ba 61ec f8ba 6ff3 fbba
00000240: 468d 51ba f108 52ba ab81 4fba 8249 4fba
00000250: 08ac 9d3a 5d0a 9e3a fbb4 9d3a 67e6 9c3a
00000260: 2eb0 12ba bfb4 09ba 6938 1cba 5c73 07ba
00000270: efd3 c1b9 bbc4 b1b9 df4f b1b9 f25f aab9
00000280: 17a3 11ba 7fe0 2dba fd17 45ba 44a9 38ba
00000290: 537a 0539 80d8 e038 8d68 ff38 6616 b638
000002a0: 078e e339 8d85 ec39 540a e839 4977 dd39
000002b0: a3f7 0abb d5c1 07bb 93c1 08bb b32b 06bb
000002c0: a15e 3aba 4207 38ba a0bb 3bba 286d 3bba
000002d0: 6084 9a3a 4018 9a3a 8704 993a 92c9 9b3a
000002e0: b6f6 6ab9 b131 79b9 0abc 5fb9 c18c 67b9
000002f0: c5f9 e8b9 351f c9b9 fbe6 ecb9 35a5 ecb9
00000300: 3841 d537 2e12 da38 0700 f4b8 eb5d 5cb7
00000310: 8e03 91b9 33f6 4ab9 f469 7bb9 2635 acb9
00000320: 23a9 8f35 9891 23b9 f3e3 82b9 3d0d 01b9
00000330: 8348 043b 440f 063b bfa0 f63a 42b4 013b
00000340: 2a43 203a 8930 223a ce3f 213a 3b2a 223a
00000350: b8c4 76ba 5952 7dba 532b 79ba 366e 74ba
00000360: e7aa c2b9 8281 5fb9 4284 2bb9 d2f2 60b9
00000370: 96de 9639 1e47 8f39 1c77 a239 3e7a 6939
00000380: cad4 a73a 1280 893a 80d2 963a dd06 8a3a
00000390: fae0 3739 7725 2239 e941 5539 40fd 1f39
000003a0: 446e 2aba 6cf4 39ba 31c8 34ba 5fa1 32ba
000003b0: 7016 0d3b 7e3d 0e3b 0c1d 0a3b ff32 0e3b
000003c0: d9cc 6b3a 6540 663a 7528 6a3a f747 683a
000003d0: 79fc aaba 8edc abba d485 abba 0cbf a9ba
000003e0: a5e0 413a e550 263a 45ef 3e3a 514a 133a
000003f0: c7b3 d739 e4c3 c739 c5d7 e339 c19f d939

encoder.backward_layers.4.layer.0.bias f4 [8]
-0.00018851989 7.103185e-05 0.00011195539 0.0023208056 0.0004181204 -0.0014240188 8.826441e-05 0.0005668106
00000000: 6cad 45b9 eff6 9438 98c9 ea38 a818 183b
00000010: 2c37 db39 24a6 baba 981a b938 0496 143a

encoder.attention_layers.0.key_conv.weight f4 [2, 2, 1, 1]
-1.7032863 0.42995948 0.5533518 1.5474849
00000000: 4905 dabf a623 dc3e 77a8 0d3f fc13 c63f

encoder.attention_layers.0.query_conv.weight f4 [2, 2, 1, 1]
-0.8419589 0.18016374 0.64252335 -0.55344933
00000000: 9e8a 57bf d87c 383e 697c 243f dbae 0dbf

encoder.attention_layers.0.value_conv.weight f4 [2, 2, 1, 1]
0.025976764 -0.8293468 -0.657767 0.39311144
00000000: 39cd d43c 1250 54bf 6b63 28bf e745 c93e

encoder.attention_layers.1.rel_h f4 [2, 1, 1, 1, 1]
0.30376884 1.0083238
00000000: 9787 9b3e c110 813f

encoder.attention_layers.1.rel_w f4 [2, 1, 1, 1, 1]
-0.84851635 -0.8551557
00000000: 5e38 59bf 7ceb 5abf

encoder.attention_layers.1.key_conv.weight f4 [4, 4, 1, 1]
0.03755893 0.56512135 -0.7750355 1.3667586 -0.27274698 -1.1254479 -0.16987301 0.456952
0.5995553 -1.1969306 0.1462731 -0.8075601 0.022613022 0.38385773 -1.8209484 0.56602937
00000000: 65d7 193d cbab 103f ba68 46bf f2f1 ae3f
00000010: 7ea5 8bbe ad0e 90bf 31f3 2dbe 9df5 e93e
00000020: 757c 193f 0635 99bf 9ec8 153e 42bc 4ebf
00000030: f23e b93c 0089 c43e d614 e9bf 4de7 103f

encoder.attention_layers.1.query_conv.weight f4 [4, 4, 1, 1]
1.4375956 0.14781262 1.1547756 -0.72106177 0.14302784 -1.0493747 -0.8073239 0.019289237
-1.6863407 0.364261 -0.6153123 0.836835 -1.3484855 -0.11370367 -0.3372827 -0.45816088
00000000: 2203 b83f 315c 173e b0cf 933f 8197 38bf
00000010: e475 123e e951 86bf c7ac 4ebf 7604 9e3c
00000020: 03da d7bf 6b80 ba3e 1b85 1dbf d23a 563f
00000030: 2c9b acbf 78dd e8bd 51b0 acbe 1094 eabe

encoder.attention_layers.1.value_conv.weight f4 [4, 4, 1, 1]
-0.44225112 0.0570556 -0.7795491 0.2109393 -0.26894408 -0.7169925 1.6138198 -0.7449541
-0.50646967 -0.89830047 -0.719292 1.1004653 0.55158037 -0.49196073 -0.76717377 -1.0430216
00000000: bd6e e2be 22b3 693d 8890 47bf 7900 583e
00000010: 0ab3 89be d28c 37bf a691 ce3f 50b5 3ebf
00000020: ffa7 01bf 05f7 65bf 8523 38bf 0cdc 8c3f
00000030: 5f34 0d3f 47e2 fbbe 8065 44bf bb81 85bf

encoder.attention_layers.2.rel_h f4 [3, 1, 1, 1, 1]
-0.6886474 0.17942744 -0.57768136
00000000: 324b 30bf d4bb 373e ede2 13bf

encoder.attention_layers.2.rel_w f4 [3, 1, 1, 1, 1]
-0.030648097 0.51076543 0.45515177
00000000: b811 fbbc 86c1 023f a709 e93e

encoder.attention_layers.2.key_conv.weight f4 [6, 6, 1, 1]
0.2494387 0.20537794 -0.8386158 0.30510145 -0.11677524 -1.684114 0.59411913 -1.4794014
-0.48701116 -0.23259631 -0.069273606 0.060493667 0.20597245 -0.15242691 -0.115600705 -0.66047376
-0.9975577 0.34627676 0.5039218 1.0399563 -0.38027322 0.3382416 0.006295499 -0.23848738
0.9330712 -0.0948763 -0.5604377 -1.4112014 0.244835 0.32608345 -0.08698798 0.47391084
-0.38638803 -0.15505521 0.60771394 -0.49319163
00000000: dc6c 7f3e 984e 523e 86af 56bf 4236 9c3e
00000010: db27 efbd 0c91 d7bf 3118 183f 065d bdbf
00000020: 8759 f9be ba2d 6ebe 52df 8dbd 35c8 773d
00000030: 71ea 523e cd15 1cbe 10c0 ecbd cf14 29bf
00000040: f15f 7fbf 304b b13e 0501 013f 4a1d 853f
00000050: 2cb3 c2be 012e ad3e 794a ce3b 0936 74be
00000060: c1dd 6e3f 814e c2bd d878 0fbf 3fa2 b4bf
00000070: 07b6 7a3e 69f4 a63e c126 b2bd 71a4 f23e
00000080: a7d4 c5be cbc6 1ebe 2493 1b3f 9d83 fcbe

encoder.attention_layers.2.query_conv.weight f4 [6, 6, 1, 1]
-0.7946407 0.9284223 -0.17358553 0.08030501 -0.3599454 0.47131735 -1.5620463 0.7368779
-0.40143093 -0.045152463 -0.41462472 -0.4158166 0.68741196 0.14789952 -0.9103226 0.5997509
1.1290362 0.070514046 0.6614297 -0.19870912 0.7006182 0.651125 -0.5257729 -1.3265507
-0.22990105 0.398219 -0.07786816 0.8842453 -0.1384758 -0.86556506 -0.64832044 0.9401408
0.24593763 0.5476035 -0.41749007 -0.072901644
00000000: 936d 4bbf 15ad 6d3f 68c0 31be f476 a43d
00000010: c34a b8be 8250 f13e 22f1 c7bf 08a4 3c3f
00000020: 5b88 cdbe caf1 38bd b149 d4be eae5 d4be
00000030: 3bfa 2f3f f972 173e e70a 69bf 4689 193f
00000040: 4284 903f ab69 903d 7553 293f 677a 4bbe
00000050: b75b 333f 21b0 263f 0e99 06bf 6acc a9bf
00000060: 2e6b 6bbe 5ce3 cb3e 5879 9fbd e65d 623f
00000070: 9acc 0dbe ac95 5dbf 54f8 25bf 11ad 703f
00000080: 13d7 7b3e be2f 0c3f 42c1 d5be 754d 95bd

encoder.attention_layers.2.value_conv.weight f4 [6, 6, 1, 1]
-0.7108012 -1.0458694 -0.7267673 0.39696425 -0.35120207 0.21110345 0.50350136 -0.3672256
0.25189835 0.9379526 0.15834044 1.2768657 0.099238195 -0.2572128 -0.557848 -0.06045166
-0.6758754 0.6251848 -0.19248697 0.56637007 0.29501596 -0.5145877 1.3729749 -1.2440032
-0.096898094 0.2161892 0.36534733 -0.7099197 -0.02719201 -0.88936 0.22826257 0.4206666
0.6845741 -0.6079693 -0.2271304 0.41021687
00000000: 11f7 35bf 0cdf 85bf 6c0d 3abf e63e cb3e
00000010: c2d0 b3be 812b 583e 77e5 003f fe04 bcbe
00000020: d2f8 803e a91d 703f ff23 223e 5670 a33f
00000030: 653d cb3d 65b1 83be 20cf 0ebf 299c 77bd
00000040: 2c06 2dbf 1c0c 203f 4e1b 45be a1fd 103f
00000050: 550c 973e 05bc 03bf a4bd af3f 7f3b 9fbf
00000060: 8272 c6bd b460 5d3e ce0e bb3e 4cbd 35bf
00000070: c7c1 debc 19ad 63bf aabd 693e 9d61 d73e
00000080: 4040 2f3f e0a3 1bbf df94 68be f207 d23e

encoder.attention_layers.3.rel_h f4 [4, 1, 1, 1, 1]
-0.5567809 1.3135877 -0.8206468 -0.789027
00000000: 3189 0ebf a423 a83f e915 52bf acfd 49bf

encoder.attention_layers.3.rel_w f4 [4, 1, 1, 1, 1]
0.50611556 -2.086258 0.051740438 -1.2089883
00000000: ca90 013f 4085 05c0 c8ed 533d 21c0 9abf

encoder.attention_layers.3.key_conv.weight f4 [8, 8, 1, 1]
0.74587667 0.25369063 0.05453353 0.07147264 -0.020294836 -0.01549842 -0.04283059 0.86482114
-0.44944015 -0.5782323 -0.16632381 -0.3628696 0.19541045 -0.7783084 -0.25621718 0.022264974
0.016664427 -0.33744067 -0.779875 -0.5136007 -0.5863576 -0.32667494 0.55307144 0.14820349
0.35545138 0.22212057 -0.04203842 -1.1226205 -0.13064522 0.44570428 0.39086416 -0.19587353
0.05306869 0.5050245 0.55415523 -0.41386047 -0.13079622 -0.1844017 0.677151 -0.26688212
-0.58024037 -0.3052661 -0.0936154 -0.6174213 -0.19614568 0.9080322 0.14415647 -0.74462146
0.7895007 0.011758324 0.4011481 1.2948813 -0.5395983 -0.15868509 -0.46679965 0.51639706
-0.2181638 0.040640503 0.7846805 -0.12081627 -0.3101529 0.03610227 -0.85220385 0.26433244
00000000: c6f1 3e3f bde3 813e 8d5e 5f3d 3f60 923d
00000010: 5b41 a6bc 16ed 7dbc 216f 2fbd eb64 5d3f
00000020: 051d e6be 0807 14bf ca50 2abe 0bca b9be
00000030: ad19 483e 383f 47bf e62e 83be 0965 b63c
00000040: d683 883c 06c5 acbe e3a5 47bf 567b 03bf
00000050: 881b 16bf f041 a7be 1796 0d3f a8c2 173e
00000060: b9fd b53e 9373 633e 7a30 2cbd 07b2 8fbf
00000070: dcc7 05be 5a33 e43e 591f c83e 1293 48be
00000080: 8e5e 593d 4949 013f 1edd 0d3f 85e5 d3be
00000090: 72ef 05be cdd3 3cbe c559 2d3f c6a4 88be
000000a0: a28a 14bf d74b 9cbe 6eb9 bfbd 530f 1ebf
000000b0: 6ada 48be cc74 683f c19d 133e 839f 3ebf
000000c0: b81c 4a3f fca5 403c 4963 cd3e acbe a53f
000000d0: 1d23 0abf 587e 22be 5d00 efbe 9932 043f
000000e0: 5566 5fbe a876 263d d2e0 483f 856e f7bd
000000f0: 5ccc 9ebe f9df 133d 082a 5abf 9556 873e

encoder.attention_layers.3.query_conv.weight f4 [8, 8, 1, 1]
-0.92899597 0.10429484 0.48324943 -0.17364351 0.46294278 -0.5317933 -0.007154242 0.9997451
-0.21199527 -0.7882115 0.85560054 -0.031940144 0.03426167 0.6795146 0.019354716 0.5082057
-0.34908667 0.3117487 -0.343507 -0.03235455 0.335031 0.84937775 -0.23952349 0.6251615
1.0333935 -0.04386875 0.52038926 -0.65426147 -1.1178664 0.47719714 0.04941833 0.08759954
-0.36594063 -1.0078274 0.014010639 -0.49414176 0.09710853 0.23283462 -0.6571096 0.55974156
0.55257195 -0.14627619 0.039635465 0.54441404 0.71634716 0.45940077 0.9005514 -0.07457188
0.3029844 -0.44728383 -0.043010175 0.29651335 -0.2063389 -0.62657666 -0.6596676 -0.7529212
-0.63740814 -0.5363035 -0.120375276 -0.052643985 -0.8612086 -0.49051437 -0.20714962 0.21296853
00000000: aed2 6dbf 8898 d53d 786c f73e 9bcf 31be
00000010: d606 ed3e 9b23 08bf 226e eabb 4bef 7f3f
00000020: 4a15 59be 3bc8 49bf a308 5b3f abd3 02bd
00000030: f755 0c3d abf4 2d3f c88d 9e3c c519 023f
00000040: 7dbb b2be 879d 9f3e 26e0 afbe 3486 04bd
00000050: 2f89 ab3e d270 593f a545 75be 960a 203f
00000060: 3d46 843f b8af 33bd 3b38 053f ae7d 27bf
00000070: 3f16 8fbf 2f53 f43e e06a 4a3d 6367 b33d
00000080: 925c bbbe 7d00 81bf e18c 653c 2600 fdbe
00000090: d6e0 c63d 336c 6e3e 5638 28bf 394b 0f3f
000000a0: 5b75 0d3f 6dc9 15be cc58 223d b85e 0b3f
000000b0: 8762 373f 9436 eb3e 898a 663f 24b9 98bd
000000c0: c520 9b3e 6302 e5be 702b 30bd 99d0 973e
000000d0: 814a 53be 5467 20bf fadf 28bf 72bf 40bf
000000e0: 2e2d 23bf 304b 09bf 5087 f6bd 38a1 57bd
000000f0: 2b78 5cbf b324 fbbe 081f 54be 6c14 5a3e

encoder.attention_layers.3.value_conv.weight f4 [8, 8, 1, 1]
0.20971403 -0.7335104 -0.014857919 0.8336332 0.28352675 -0.2216513 -0.68352365 -0.827131
0.041108005 0.16268 0.64150417 -0.49508154 0.28421885 -0.041124918 0.18798533 -0.20648971
-0.1698931 0.07056969 1.1139786 -0.07541692 0.17113195 0.4868021 0.43009213 -0.32760602
0.38099727 -0.48281455 -0.16802013 0.59910697 0.31296897 -0.07975268 0.55428225 0.29373586
-0.47494012 -0.29665253 0.28722066 0.14608754 -0.17777908 0.42336366 -0.16193256 -0.66270316
0.4130108 -0.16074693 0.3981639 -0.17244777 0.28566644 0.3725673 -0.54831403 0.045915857
-0.39592314 -0.5637858 -0.095416844 -0.38069537 -0.211972 -0.52775204 1.0230253 0.570022
-0.82942605 0.61643696 -0.13788223 -0.30479732 0.9523624 -0.3605077 0.79212594 -0.015525586
00000000: 46bf 563e 56c7 3bbf a16e 73bc fc68 553f
00000010: 6b2a 913e 8ff8 62be 68fb 2ebf dbbe 53bf
00000020: de60 283d 9695 263e 9e39 243f 547b fdbe
00000030: 2285 913e 9a72 28bd 3a7f 403e 0a72 53be
00000040: 75f8 2dbe d786 903d da96 8e3f 3074 9abd
00000050: 373d 2f3e 203e f93e 0935 dc3e fabb a7be
00000060: 1312 c33e 7833 f7be 780d 2cbe 135f 193f
00000070: 783d a03e 6055 a3bd 71e5 0d3f 8c64 963e
00000080: 5a2b f3be d7e2 97be 960e 933e f997 153e
00000090: b80b 36be 1fc3 d83e a6d1 25be eaa6 29bf
000000a0: 2776 d33e d89a 24be 24dc cb3e 2696 30be
000000b0: df42 923e 24c1 be3e 4f5e 0cbf 4412 3c3d
000000c0: 70b6 cabe 4454 10bf e869 c3bd 81ea c2be
000000d0: 300f 59be c21a 07bf 7ef2 823f f6ec 113f
000000e0: 4455 54bf d0ce 1d3f 0031 0dbe 650e 9cbe
000000f0: 06ce 733f 7794 b8be c4c8 4a3f 075f 7ebc

encoder.attention_layers.4.rel_h f4 [5, 1, 1, 1, 1]
0.044799756 1.1634257 0.57331604 0.63961315 -0.29206204
00000000: f37f 373d 22eb 943f d7c4 123f b0bd 233f
00000010: 2889 95be

encoder.attention_layers.4.rel_w f4 [5, 1, 1, 1, 1]
1.700017 1.4711903 0.27164018 -0.07910076 -0.636575
00000000: 289a d93f f74f bc3f 6c14 8b3e 94ff a1bd
00000010: 94f6 22bf

encoder.attention_layers.4.key_conv.weight f4 [10, 10, 1, 1]
-0.5308977 0.13926376 0.1815528 0.040106423 -0.14777263 -0.16140804 -0.026477328 -0.55184907
-0.04397112 -0.07067945 0.2462499 -0.10528649 -0.036558136 -0.06833699 0.025604412 0.6745124
0.05033724 -0.63106394 -0.50779843 -0.05227724 0.57886916 -0.8747817 -0.15845285 -0.13068339
0.23808914 -0.6106959 0.27753586 -0.07944289 -0.049847327 0.37786844 1.3567175 0.5210616
0.12978148 -0.070565976 -0.63618284 -0.5607731 -0.2654379 -0.3652256 -0.06547566 -0.26706427
-0.20356289 -0.77373606 1.3467219 -0.56385833 0.5191662 0.13182357 -0.18145768 0.066239074
-0.1071486 -0.30736265 0.39152458 -0.042799722 0.6440542 1.1284676 -0.6516554 -0.34437597
0.123983875 0.16045432 0.052943215 0.13678837 -0.4669772 0.06700368 -0.18024042 0.5799983
0.41694102 0.38911173 -0.27393565 -0.34967923 -0.5033208 0.3255324 -0.32477885 -0.5406922
-0.9970609 0.09974871 0.59030646 -0.2216136 -0.18627076 -0.6270468 0.5305777 -1.6028816
-0.17016837 0.19837864 -0.68047094 0.40764657 -0.64901924 1.1114553 0.62652683 0.43980324
-0.09369375 -0.20962909 0.0664627 0.014251056 -0.24345037 -0.15547527 -0.4000435 0.279781
-0.5051608 0.43736118 -0.064280935 -0.27835518
00000000: e9e8 07bf 299b 0e3e fae8 393e a246 243d
00000010: b551 17be 2648 25be fbe6 d8bc fb45 0dbf
00000020: 101b 34bd 63c0 90bd ef28 7c3e 71a0 d7bd
00000030: fcbd 15bd 44f4 8bbd 58c0 d13c d8ac 2c3f
00000040: 6c2e 4e3d 688d 21bf 14ff 01bf a920 56bd
00000050: c530 143f b2f1 5fbf 7741 22be ded1 05be
00000060: a4cd 733e 9156 1cbf 2e19 8e3e f4b2 a2bd
00000070: b62c 4cbd f977 c13e eba8 ad3f 4b64 053f
00000080: 70e5 043e e584 90bd e1dc 22bf d38e 0fbf
00000090: 7ae7 87be dafe babe 1a18 86bd a6bc 88be
000000a0: ca72 50be 9113 46bf 6261 ac3f 0559 10bf
000000b0: 13e8 043f c2fc 063e 0bd0 39be 5aa8 873d
000000c0: ba70 dbbd a35e 9dbe e975 c83e c34e 2fbd
000000d0: bce0 243f a071 903f e3d2 26bf 0c52 b0be
000000e0: 42eb fd3d 234e 243e fcda 583d 4012 0c3e
000000f0: a317 efbe 3a39 893d f290 38be c57a 143f
00000100: 4b79 d53e a739 c73e 4b41 8cbe 2809 b3be
00000110: a2d9 00bf 2fac a63e 6a49 a6be ce6a 0abf
00000120: 623f 7fbf 0d49 cc3d 531e 173f adee 62be
00000130: c3bd 3ebe 2486 20bf f1d3 073f 392b cdbf
00000140: 9e40 2ebe c523 4b3e 5833 2ebf 0db7 d03e
00000150: 2026 26bf 2b44 8e3f 1064 203f e42d e13e
00000160: 82e2 bfbd 02a9 56be 991d 883d 437d 693c
00000170: 0e4b 79be e934 1fbe 80d2 ccbe 753f 8f3e
00000180: 3852 01bf ceed df3e b9a5 83bd 9284 8ebe

encoder.attention_layers.4.query_conv.weight f4 [10, 10, 1, 1]
0.33541298 -0.43679804 0.919482 -0.054504823 -0.41353112 -0.17518307 -0.04311705 -0.3893949
-0.012397209 0.7103989 0.70596164 -0.23026723 -0.23244451 0.3053795 -0.35401022 -0.022274349
-0.041380186 -0.17306362 0.45738772 0.17297807 -0.26567912 0.44993708 0.3237662 0.6196618
0.6496239 -0.14387687 -0.45930117 -0.7408528 -0.5573699 -0.43869784 -0.49678224 -0.28444076
-0.50420976 -0.2551082 -0.16699295 -0.5893461 0.18349388 0.18534978 0.03344182 -0.18795417
-0.2301517 0.08936913 -0.053544726 -0.05751972 0.53505874 -0.29898512 0.81299925 -0.5402935
-0.2876504 -0.23240094 -0.32905203 -0.09641582 0.0505696 0.12043228 0.6051851 0.47274753
0.92367864 0.02293368 0.046823908 -0.34464014 -0.00087436015 -0.5065723 0.086162195 -0.06323375
0.25488722 -0.14557011 -0.33834457 -0.33373374 0.35451984 0.7091047 -0.048924662 -0.25000513
-0.6507218 -0.03478916 0.03475015 0.5417205 -0.21106453 0.10197789 0.09309135 0.008468201
-0.042108506 -0.35477355 -0.44353458 -0.26064676 -0.11241902 0.51011807 0.43123344 0.21173961
-0.18280089 0.57198566 -0.691757 -0.29120943 0.0015976776 0.5496748 -0.09001244 -0.1619323
0.7470302 0.1987142 -0.55739516 -0.61397696
00000000: 40bb ab3e fea3 dfbe 2c63 6b3f 7340 5fbd
00000010: 5aba d3be 3163 33be 819b 30bd c55e c7be
00000020: aa1d 4bbc b4dc 353f e7b9 343f 2ccb 6bbe
00000030: ef05 6ebe b45a 9c3e d440 b5be b278 b6bc
00000040: 457e 29bd 9737 31be b92e ea3e 2a21 313e
00000050: 1807 88be 275e e63e afc4 a53e 28a2 1e3f
00000060: c04d 263f 7554 13be 8629 ebbe 87a8 3dbf
00000070: cbaf 0ebf 019d e0be 3e5a febe 38a2 91be
00000080: e413 01bf 8b9d 82be 3300 2bbe 63df 16bf
00000090: d2e5 3b3e 55cc 3d3e 4afa 083d 0f77 40be
000000a0: e3ac 6bbe 2a07 b73d b751 5bbd cc99 6bbd
000000b0: 9cf9 083f 9414 99be b820 503f ad50 0abf
000000c0: ea46 93be 83fa 6dbe 8279 a8be a875 c5bd
000000d0: 1222 4f3d 33a5 f63d 69ed 1a3f f70b f23e
000000e0: 3476 6c3f 6adf bb3c 6dca 3f3d ac74 b0be
000000f0: 5135 65ba b9ae 01bf ce75 b03d b280 81bd
00000100: 9480 823e 5510 15be 803b adbe 26df aabe
00000110: a083 b53e e387 353f 3a65 48bd ac00 80be
00000120: b495 26bf 147f 0ebd 2c56 0e3d 32ae 0a3f
00000130: 4d21 58be c9d9 d03d ada6 be3d 36be 0a3c
00000140: f879 2cbd e1a4 b5be f716 e3be 7e73 85be
00000150: f13b e6bd 1997 023f a1ca dc3e 45d2 583e
00000160: 2830 3bbe a76d 123f fd16 31bf 6719 95be
00000170: 2a69 d13a 7db7 0c3f 7158 b8bd 95d1 25be
00000180: 5f3d 3f3f bc7b 4b3e 73b1 0ebf 982d 1dbf

encoder.attention_layers.4.value_conv.weight f4 [10, 10, 1, 1]
0.03611434 0.18046477 0.80637896 -0.49044344 -0.5847372 -0.21709017 0.3415818 -0.09434295
-0.0826988 -0.6359106 -0.516247 0.025835829 0.15783224 -0.5397888 -0.24263617 -0.9684716
-0.31774563 -0.3658459 0.10729279 -0.48000032 0.19189844 -0.012405178 0.30459702 0.4174875
0.4673712 0.65719974 -0.23701991 -0.25278577 -0.2531175 0.7992559 -0.3462478 0.4642141
0.2110331 0.00027169762 0.40961823 0.46193245 0.17813124 0.3277868 -0.32472232 0.46000415
-0.2845458 0.19640115 0.2046864 -0.25287753 -0.41449142 0.5475315 -0.018415535 0.55039537
0.06246358 0.005770685 0.11156862 0.68206346 -0.81126314 0.24544542 0.6344046 -0.41013888
-1.3243349 0.14432567 -0.16855657 -0.8789816 -0.28548822 -0.6258946 -0.5811889 -0.2509285
0.54360604 -0.15249236 -0.04482403 0.27950913 0.10105212 -0.16310598 -0.43433324 -0.20237589
1.05309 0.5823399 0.04847626 0.0026537753 0.3937769 0.7461373 -0.4939588 -1.2153093
-0.13446134 0.7233907 0.16039667 0.6059857 0.09339539 -0.04179558 0.382615 -0.59066397
-0.13895893 -0.4357185 0.06929171 -0.48462567 -0.58677006 -0.10128337 -0.4119293 -0.37953025
0.18744947 0.2689141 0.27528137 -0.76816326
00000000: a1ec 133d c2cb 383e da6e 4e3f 671b fbbe
00000010: 56b1 15bf e34c 5ebe cfe3 ae3e e036 c1bd
00000020: fd5d a9bd 09cb 22bf c328 04bf a9a5 d33c
00000030: c69e 213e 992f 0abf 9e75 78be c1ed 77bf
00000040: 8eaf a2be 2750 bbbe 53bc db3d 9ac2 f5be
00000050: 0681 443e 163f 4bbc 24f4 9b3e ecc0 d53e
00000060: 474b ef3e 3e3e 283f 59b5 72be 236d 81be
00000070: 9e98 81be 099c 4c3f 6447 b1be 78ad ed3e
00000080: 1019 583e a372 8e39 7bb9 d13e 6982 ec3e
00000090: 0968 363e acd3 a73e 0142 a6be aa85 eb3e
000000a0: fdaf 91be 621d 493e 5099 513e 2a79 81be
000000b0: 3838 d4be 062b 0c3f 2ddc 96bc b6e6 0c3f
000000c0: d0d9 7f3d 0418 bd3b 177e e43d b69b 2e3f
000000d0: f1ae 4fbf 0b56 7b3e 5768 223f b9fd d1be
000000e0: ce83 a9bf 1cca 133e 189a 2cbe f004 61bf
000000f0: 832b 92be a13a 20bf ccc8 14bf b379 80be
00000100: c429 0b3f f526 1cbe 6799 37bd d21b 8f3e
00000110: 6af4 ce3d 4105 27be ed60 debe a03b 4fbe
00000120: a7cb 863f 3a14 153f 0b8f 463d f6ea 2d3b
00000130: 209d c93e db02 3f3f 2be8 fcbe 418f 9bbf
00000140: 3cb0 09be 2230 393f 063f 243e e121 1b3f
00000150: 1546 bf3d d831 2bbd 1de6 c33e c135 17bf
00000160: 404b 0ebe 7f16 dfbe d0e8 8d3d db20 f8be
00000170: 9036 16bf a86d cfbd 66e8 d2be ca51 c2be
00000180: c1f2 3f3e 1caf 893e aef1 8c3e 59a6 44bf

exp_avg f4 [2, 1, 2, 2]
-0.00012281103 -0.00012500331 -0.00012979544 -0.00012139334 -3.0153276e-05 -3.579088e-05 -2.8357616e-05 -2.7529237e-05
00000000: d6c6 00b9 5213 03b9 b319 08b9 8e94 feb8
00000010: abf1 fcb7 2a1e 16b8 84e1 edb7 96ee e6b7

exp_avg_sq f4 [2, 1, 2, 2]
7.281809e-07 7.2804926e-07 7.2790675e-07 7.2692e-07 1.1606618e-06 1.1337248e-06 1.1827027e-06 1.1576136e-06
00000000: 3678 4335 2a6f 4335 5f65 4335 9021 4335
00000010: 09c8 9b35 7d2a 9835 5bbd 9e35 4d5f 9b35

exp_avg f4 [2]
-0.00013462301 -3.171031e-05
00000000: 9729 0db9 b000 05b8

exp_avg_sq f4 [2]
7.7845806e-07 1.0259765e-06
00000000: 3bf7 5035 49b4 8935
