Bongard-LOGO_Baselines/save/meta_shape-bongard-v2-6shot_meta-baseline-resnet12-seed123/max-va.pth (torch, 52195 bytes, 80 tensors)

encoder.fc.layer.0.weight f4 [10, 10]
000000 2e 71 d6 bd 37 f0 33 3e e5 56 89 3d e7 70 9c 3c
       -0.10470806 0.17572103 0.06706027 0.019096805
000010 b5 60 41 3e 68 3b 00 bd 03 8a 94 bd 80 0b 81 3e
       0.18884547 -0.031306654 -0.07252886 0.25204086
000020 ab 46 0c 3c a4 0c 72 3e d9 80 05 be 82 8f 91 3d
       0.00856177 0.23637635 -0.13037433 0.0710745
000030 93 b2 a0 3e 2c 08 93 be a8 a1 b2 bd 6c 7a 1b be
       0.3138624 -0.28717172 -0.0872224 -0.15183419
000040 61 3b 95 3e fd d6 3d bc 8d 3e 80 3d 76 53 90 be
       0.29146865 -0.011586902 0.062619306 -0.28188676
000050 c6 8a a9 bd 47 db f7 3d 11 9d fb 3d bf 99 11 3e
       -0.08278422 0.12102371 0.122858174 0.14218806
000060 93 a2 3a be 26 64 40 be 0d 19 43 3e 30 7d 80 be
       -0.1822608 -0.18788204 0.19052525 -0.2509551
000070 bb bf 0d bd d8 2c 71 3e 91 ac 5c be e7 27 2f 3e
       -0.034606677 0.23552263 -0.21550204 0.17105065
000080 f6 c5 98 bd a4 f6 d8 bd 5f 5d 55 be ac 74 bb 3c
       -0.07459633 -0.10593918 -0.208364 0.022882782
000090 b5 f3 1b 3e 53 eb 53 bd 81 f9 99 3e dd 9a 53 be
       0.15229686 -0.051738095 0.3007317 -0.20664544
0000a0 26 18 80 be 4d 32 81 bd 2f 85 97 be 01 06 0d be
       -0.25018424 -0.06308422 -0.295938 -0.13771822
0000b0 23 89 bd 3d 70 b4 31 be 2a fe 71 be fa ee 83 3e
       0.092546724 -0.17353988 -0.23632112 0.25768262
0000c0 9d a1 38 3c 64 71 13 be 0b b5 9f 3e ae 8a 23 be
       0.011269 -0.14398724 0.31192812 -0.15970871
0000d0 c1 81 e8 bd cf 8b 61 be 01 0b 9a bd 4d 2b c1 3c
       -0.113528736 -0.22025989 -0.0752163 0.023580218
0000e0 fa d1 4e 3e 40 2f c0 bd be 57 b9 bd 33 7b 54 be
       0.20197287 -0.09384012 -0.090499386 -0.20750122
0000f0 d0 16 b5 3d 1b 8a a0 3e 32 d7 9c be 98 ff 06 be
       0.08842242 0.31355366 -0.3063293 -0.13183439
000100 6e 37 40 be 08 02 e4 bd 50 4c 0b 3e dd f8 c0 bc
       -0.18771145 -0.111332 0.1360333 -0.023556167
000110 32 6c 1a 3e a0 cb 8b 3e 97 9e 09 3e 66 bb 83 bc
       0.15080336 0.2730379 0.13439403 -0.01608057
000120 19 f4 85 be 8c f1 24 be 08 56 79 3e b8 ca 24 3e
       -0.26162794 -0.16107768 0.24349225 0.16092956
000130 d5 61 0c be 3c dd fd bb cc 3e 71 3e 04 b6 66 3c
       -0.13709195 -0.0077473205 0.23559111 0.014081482
000140 a8 68 18 3e 72 29 66 3e 11 0c 16 be f1 a0 e5 bd
       0.14883673 0.22476748 -0.1465304 -0.11212338
000150 91 57 53 be ff 76 08 3e 89 59 62 be 29 a4 79 3e
       -0.20638873 0.13326643 -0.22104467 0.24379028
000160 1e 3e 86 3e 7f df 81 3e 45 37 76 bd ac d1 2b 3e
       0.26219267 0.25365826 -0.060111303 0.16779202
000170 12 d8 02 bd eb 40 ea bd 67 f6 23 be dc 1c df bd
       -0.031944342 -0.11438163 -0.16011964 -0.10894176
000180 3a c4 44 3e 6b 11 85 3e 99 a2 c7 3c 06 eb 3a 3e
       0.1921548 0.2598985 0.024369525 0.18253717

encoder.fc.layer.0.bias f4 [10]
000000 06 54 2a be ed 30 ac bd f8 33 63 3e f1 bd 02 3d
       -0.16633615 -0.08407769 0.22187793 0.031919423
000010 1e e7 98 be dc 5b f7 bd a4 a1 99 3c 45 91 03 be
       -0.29863828 -0.12078068 0.018753834 -0.12848385
000020 bf c3 e8 bb 0f 2f 04 3e
       -0.007103413 0.12908576

encoder.forward_layers.0.layer.0.weight f4 [2, 1, 2, 2]
000000 6a 79 62 3b 09 f7 44 bb 1a 45 6c bb ef fd 57 3b
       0.0034557232 -0.003005447 -0.003605193 0.0032957753
000010 98 6a 31 be c1 84 b2 3e b7 27 ec 3c bb 0e 2a be
       -0.17325819 0.34866908 0.028827531 -0.16607182

encoder.forward_layers.0.layer.0.bias f4 [2]
000000 00 70 4c b9 5f b1 26 bd
       -0.0001949668 -0.040696498

encoder.forward_layers.1.layer.0.weight f4 [4, 2, 2, 2]
000000 e0 8e de 3d 07 fb 24 be 6b 4d 93 bd 01 f6 16 3a
       0.10867095 -0.16111384 -0.07192501 0.00057587033
000010 d8 a0 5b bd 0f db 44 3e f2 90 df 3d 63 b8 d2 3d
       -0.05362019 0.19224189 0.10916318 0.10289075
000020 ee 8f 86 be 12 56 5e bd 83 fc e5 bd d3 fc 77 be
       -0.26281685 -0.0542813 -0.112298034 -0.24217539
000030 9f 61 ac be aa 79 94 be 4d f4 c3 bd 71 84 35 be
       -0.3366823 -0.28999072 -0.09568081 -0.17726304
000040 c7 14 3c 3e 70 8e ba 3e 5c 66 41 be 6b d0 5c 3e
       0.18367301 0.36436796 -0.18886703 0.2156388
000050 3d 38 19 3e 38 82 62 3e 8f 0c 15 be 10 38 db 3d
       0.1496286 0.22119987 -0.14555572 0.107040524
000060 07 86 d8 be 61 27 3c be 93 c3 fe 3d 06 5f 0d 3e
       -0.42289755 -0.18374397 0.124396466 0.1380578
000070 4d cf 84 be 93 0d 54 3e bd 33 9c be 9d 34 29 3e
       -0.25939408 0.20708303 -0.30508223 0.16523977

encoder.forward_layers.1.layer.0.bias f4 [4]
000000 50 47 8e 3a 7e c6 9d ba 03 0f 08 3a 5b 70 4c b9
       0.0010854993 -0.0012037305 0.0005190225 -0.00019496812

encoder.forward_layers.2.layer.0.weight f4 [6, 4, 2, 2]
000000 e5 54 42 3e 06 b3 53 3d 76 e0 9f bc f9 47 dd bd
       0.18977697 0.051684402 -0.019516211 -0.10804743
000010 a4 43 d6 3d db 2e ce bd d8 b0 0c be 43 bd 11 3e
       0.1046212 -0.10067531 -0.13739336 0.14232354
000020 25 c3 b0 bd 05 c8 03 be 46 e2 d1 3a bd b0 bd 3d
       -0.08630971 -0.1286927 0.0016012869 0.09262226
000030 e5 19 1d bd 57 39 6a bd 5d aa 9d 3c 11 59 ce 3c
       -0.038354773 -0.05718359 0.019246275 0.025188955
000040 3d eb 3d bd db 6d 0f 3e e0 1e 8b 3e da 39 9d 3c
       -0.04636692 0.1400675 0.27171993 0.019192625
000050 e3 58 0c 3e ef 3f d9 3d c5 66 0d 3d 93 49 9e bd
       0.13705783 0.106078975 0.034521837 -0.07728877
000060 c5 73 87 bd 60 39 2b ba e8 b6 78 bd a7 86 22 3e
       -0.06613878 -0.0006531682 -0.060721308 0.15871678
000070 9c a4 2f be 33 ac 26 3d 76 08 bb 3d 12 7f b8 bd
       -0.17152637 0.040691566 0.09132473 -0.09008612
000080 bb 19 52 be b3 9e 17 3e b8 33 14 3e 99 9e 3a bd
       -0.20517628 0.14806633 0.14472854 -0.045561407
000090 3e 00 b7 3c 82 cc 81 bd ec 43 2c 3d a0 21 fe bd
       0.022338983 -0.06337835 0.042056963 -0.12408757
0000a0 24 ad d7 3d c7 24 b7 bc 36 8b 30 3d 48 e3 dc bc
       0.10531071 -0.022356404 0.043101512 -0.026963845
0000b0 2e ad 20 3d b7 ad 51 3a f1 2c 2b be 62 98 16 3e
       0.039227657 0.0007998603 -0.16716363 0.14706567
0000c0 7e 49 30 be 10 fa 1b bd 2a f6 23 3e dc 37 70 3c
       -0.17215535 -0.038080275 0.16011873 0.014661755
0000d0 f6 17 0f 3e 6f 51 92 3c fd ed 60 bd 5a ae e8 3c
       0.13973984 0.017861096 -0.054914463 0.02840345
0000e0 57 19 30 be ea c2 00 3c 84 0e e1 bd b0 8f 25 3e
       -0.17197166 0.007858971 -0.10989097 0.16168094
0000f0 3d 62 bd bd 7c 79 73 3e a3 a5 ba bd f3 a9 a5 bd
       -0.09247253 0.23776811 -0.09113624 -0.08089056
000100 b0 3f f2 3d 2b 87 34 be e6 8f d9 3c 20 10 4c be
       0.11828554 -0.17629687 0.026557874 -0.19928026
000110 95 d4 56 bd 18 73 06 3d c4 22 78 bd 7a 46 64 bd
       -0.052448828 0.032824606 -0.06058003 -0.055731274
000120 c3 ba 05 3d 89 7d ad bd 88 a7 0b 3d 9b 52 85 bd
       0.032648813 -0.084712096 0.034095317 -0.06509896
000130 ef f2 25 3e 06 c6 3e 3e c4 46 13 3d 6d 9c a0 bd
       0.16205953 0.18630227 0.03595616 -0.07842336
000140 d7 3b d1 3d e7 81 f1 3b 3c 9f d8 3d 50 3d 01 bd
       0.10216492 0.007370222 0.105772465 -0.031552613
000150 50 12 6e bb e8 50 21 bd 69 ab f4 bc 32 d1 c4 3d
       -0.0036326833 -0.0393838 -0.029866891 0.09610213
000160 72 cc 8c 3d 3d a7 d7 3c f2 21 1e be b9 de 86 3d
       0.06874932 0.026324863 -0.15442637 0.0658545
000170 13 a7 17 be 6b b4 f8 3d e0 69 15 be ae 6f fe bd
       -0.14809828 0.12143787 -0.1459117 -0.12423645

encoder.forward_layers.2.layer.0.bias f4 [6]
000000 40 d9 0e bb 23 e0 83 3a 06 9d bd 38 75 c7 d9 39
       -0.0021796972 0.0010061305 9.04147e-05 0.00041538072
000010 30 ad 5f 3b d7 2d bb 3a
       0.0034130327 0.0014280629

encoder.forward_layers.3.layer.0.weight f4 [8, 6, 2, 2]
000000 f2 10 89 3d d0 ba 27 be 63 3d 36 be e4 80 dd bc
       0.06692685 -0.16379857 -0.17796855 -0.027038999
000010 4f 9c 0a 3e 9e 36 99 bd f7 68 a9 bd 9d ec 38 3e
       0.1353619 -0.074811205 -0.082719736 0.18059011
000020 e9 68 23 3d a5 4a aa bd 57 9a 55 3d 75 74 92 3d
       0.039894972 -0.083150186 0.052149143 0.07151119
000030 b8 a7 ed bd ec 8b 50 bc 61 66 65 bd dd bc a2 bd
       -0.116042554 -0.0127286725 -0.05600584 -0.07946179
000040 9e c2 04 3e cc c4 1f 3e 5e 68 21 3e fa ba f1 bd
       0.12964866 0.15602416 0.15762469 -0.11803241
000050 a0 9f 0a 3d df 75 47 3d 4a 5c 23 be 81 59 c7 bd
       0.033843637 0.048696395 -0.15953174 -0.097338684
000060 b8 37 6a 3e aa a1 0f 3e 7a 68 dd bd da a6 0d 3d
       0.22872818 0.14026514 -0.10810943 0.03458295
000070 6c 24 c8 3a 53 60 db bd a1 80 2b be a3 78 52 be
       0.0015269644 -0.10711732 -0.16748287 -0.20553832
000080 97 a3 cf 3d b2 b4 d4 3d 06 27 b9 bd 55 94 08 3d
       0.10138624 0.103860274 -0.09040646 0.033344585
000090 73 d9 45 3d f0 57 4d 3e 81 4e 90 bb 70 31 08 3e
       0.04830308 0.20053077 -0.0044038896 0.13300109
0000a0 9e 8e 91 be d3 17 10 bd f1 c5 31 3d 00 1a f9 3c
       -0.2842912 -0.03517897 0.043401662 0.030407906
0000b0 24 27 6c bd 22 d3 0a 3e 91 51 7d bd 38 d6 51 bd
       -0.057654515 0.13557103 -0.061845366 -0.051229686
0000c0 78 16 94 3d dc 58 47 be 74 a5 20 be 49 3e e2 bd
       0.07230848 -0.19467491 -0.15688115 -0.11047036
0000d0 91 c3 00 3d b4 9f 99 3c 9c ca 0b 3e fa cf a7 bd
       0.031436507 0.01875291 0.13651508 -0.08193965
0000e0 73 ad b1 3d 48 a8 b0 bc 41 39 1b 3e 1a 20 56 3d
       0.08675661 -0.021564618 0.1515856 0.05227671
0000f0 37 28 cd bb 2a 5f 5c bd 9d 34 a4 3d 20 b4 1d 3e
       -0.0062608975 -0.053801693 0.08017848 0.15400743
000100 2d 04 0c be 50 21 54 bd c6 12 dc bd a8 24 0e 3e
       -0.13673468 -0.05178958 -0.10745768 0.13881171
000110 a7 0e 39 be 41 20 00 be b6 74 91 bd e4 ec 85 3d
       -0.18071996 -0.12512304 -0.07102339 0.06539324
000120 5c ff cf bc 2b f8 c0 bd 5d 63 ba 3d 99 11 73 bd
       -0.02539032 -0.09422334 0.09100983 -0.059342954
000130 99 a9 0c b9 1c f2 42 be 99 74 af bd 28 d3 18 bd
       -0.0001341462 -0.1903767 -0.08567161 -0.03731075
000140 6f 95 8d 3d 64 0b 7c bc 83 57 13 3e 18 84 b8 bd
       0.06913268 -0.015383575 0.14388852 -0.0900957
000150 79 0a 30 be 95 c7 08 bd 05 d3 2d 3e cd 86 d9 bd
       -0.17191495 -0.03339346 0.16975029 -0.10621414
000160 d4 79 20 be 81 4e c4 3d 0c 0d 1d bd 3b 0a 40 be
       -0.15671474 0.09585286 -0.03834252 -0.18753903
000170 1d c9 ea bd 71 79 0e 3e 09 fb 42 be f5 2c 0a be
       -0.114641406 0.13913514 -0.19041075 -0.13493712
000180 61 0f ec bc 33 8a 33 3d 22 34 53 bc 5d 26 b5 3d
       -0.028815927 0.04383297 -0.012890847 0.08845208
000190 46 d5 57 3e 7c ab e5 bc 95 71 c0 bd 55 3f 82 3d
       0.21077451 -0.028035872 -0.09396664 0.06359736
0001a0 b9 4b 40 3e 70 4f 19 3e fe e2 f1 bd 86 21 f8 3d
       0.18778886 0.14971709 -0.118108734 0.12115769
0001b0 d3 a4 ab bc bb a0 b2 bc 70 9b 96 bd 75 af 16 be
       -0.020952618 -0.021805158 -0.07353866 -0.14715369
0001c0 e5 dc c4 3d 7f 94 a1 bc 85 7c 5a 3c 30 57 cb bd
       0.09612445 -0.019724129 0.013335352 -0.09928739
0001d0 4a b6 19 be 47 bc 39 be 22 bf 2a be d1 ae 23 be
       -0.15010944 -0.18138228 -0.16674474 -0.15984656
0001e0 e0 85 3d be 96 79 98 3d 01 cf 28 3c 44 5a 10 be
       -0.185081 0.07445066 0.01030326 -0.14096934
0001f0 0b 21 bd 3d f0 a4 34 3d fe 8a 00 3d 35 f3 4b 3e
       0.09234818 0.04410261 0.031382553 0.19916995
000200 a0 d4 82 3e 53 ab 83 bd be ea 20 3e 3e 76 84 3e
       0.25552845 -0.06429162 0.15714547 0.25871462
000210 3a ea 07 be ec 42 0b 3d a9 97 a2 bd 86 cc c6 3d
       -0.13272944 0.03399937 -0.07939083 0.097069785
000220 6d 97 1b 3e cc 90 d5 3d c8 0e c4 3d 2b 01 a9 3d
       0.15194483 0.104280084 0.09573132 0.08252176
000230 17 52 5f be 28 50 7c be 4a 0f 49 be 55 ff 02 bd
       -0.21808659 -0.24639952 -0.19634739 -0.031981785
000240 87 e8 1b be 6e 50 30 be 9b 95 12 be 93 ea 27 3e
       -0.15225421 -0.17218181 -0.14314882 0.16398077
000250 3d 78 39 be 87 ba 34 bd 3e 3e c3 bd b2 b7 3d 3e
       -0.18112274 -0.0441232 -0.09533356 0.18527105
000260 42 9c c8 bc 8b 6f 75 3a 69 2c 94 bd 8e 82 06 3e
       -0.024488572 0.00093626295 -0.07235033 0.1313574
000270 d8 9b 3d 3d 86 a3 5a bc c6 41 19 3e 67 54 17 3d
       0.046291202 -0.013344651 0.14966497 0.036945727
000280 95 6a 21 bc 81 77 22 3c 3f 90 37 3e 36 ea d4 bd
       -0.009852071 0.009916187 0.1792612 -0.10396235
000290 dc a4 80 3d 63 93 00 3e c3 44 51 3d ae 7f 41 3e
       0.062814444 0.12556224 0.051090967 0.18896362
0002a0 37 80 eb 3d 80 75 d9 3d b8 54 2a 3e 88 4b e1 3b
       0.114990644 0.106181145 0.1663388 0.006875459
0002b0 a2 35 a6 3c b0 23 11 bc fd 5a a0 bd ee 5a 0b be
       0.020289246 -0.008858606 -0.07829855 -0.13608906
0002c0 40 c8 2b be 4e d3 a7 3d 3d 8e cd 3c ac 7c 8b be
       -0.16775608 0.081946 0.025092239 -0.27243555
0002d0 68 8e 1f 3e a6 67 01 3e 79 c1 46 3c 23 37 4d 3e
       0.15581667 0.12637195 0.012131088 0.20040564
0002e0 9c fb 9e bc 88 d9 0d be 42 37 2a ba ba 90 bc 3b
       -0.019407086 -0.13852513 -0.00064932194 0.0057545574
0002f0 0b 76 2d 3e fc 5e bb bd 8a 46 f5 3d 32 42 fd bd
       0.16939561 -0.09148976 0.11976345 -0.123661414

encoder.forward_layers.3.layer.0.bias f4 [8]
000000 aa e9 5c 3b 72 f6 02 b9 fd 84 93 bb 2b 4b 37 ba
       0.003370861 -0.00012489574 -0.0045019374 -0.0006992097
000010 36 7b 32 b9 92 14 58 3b 40 31 08 3c 9c 8b 48 bb
       -0.00017021302 0.0032971245 0.008312523 -0.0030600792

encoder.forward_layers.4.layer.0.weight f4 [10, 8, 2, 2]
000000 10 ff 87 bd aa cf f0 3d c2 1f 89 bd 1b 16 ee 3d
       -0.06640446 0.11758359 -0.066955104 0.1162531
000010 a1 94 9a bd 80 d3 23 3e e2 b3 48 3c 0b 78 06 3e
       -0.0754788 0.1599865 0.012249919 0.1313173
000020 e7 b6 16 be 6c 77 e4 3d d6 3e a7 bd 46 bb 6b bd
       -0.14718209 0.111555904 -0.08166282 -0.057551645
000030 9f 44 16 3d 91 5e e6 3b 9e dd 07 be 64 56 11 be
       0.036686536 0.007030316 -0.13268134 -0.14193112
000040 18 5b 6f 3d 9d 87 2a be 7a 8a 66 3d 74 06 8f 3b
       0.058436483 -0.16653295 0.056284405 0.004364783
000050 7b f2 c4 3d 93 13 62 bd 55 8a bf 3d 4e 09 19 bd
       0.09616562 -0.05519445 0.093525566 -0.03736239
000060 4f 97 23 3e 87 ea ac bd 78 13 45 3e 71 77 95 bd
       0.15975688 -0.0844317 0.19245708 -0.07298172
000070 25 1a e3 3c 52 b5 51 bd 8d 96 bc bd a1 00 16 3d
       0.027722428 -0.05119831 -0.09208403 0.036621694
000080 80 2c df bd 3b 03 78 3c 76 11 1e be 6b a6 27 be
       -0.108971596 0.015137489 -0.15436348 -0.16372077
000090 9c 62 ab 3d ed 75 bd bd 34 24 27 be ea a6 09 3e
       0.083684176 -0.09251008 -0.16322404 0.13442579
0000a0 31 72 e7 bc 97 3e df bd 97 e6 a4 3d 04 67 e2 bd
       -0.028252693 -0.1090061 0.08051794 -0.11054805
0000b0 58 8f 16 3d b7 5d e5 3a 40 50 13 3e d6 22 24 be
       0.036757797 0.0017499243 0.14386082 -0.16028914
0000c0 c7 54 ee bc d8 ff 06 3e 66 0c c7 bc c5 e4 15 be
       -0.02909316 0.13183534 -0.024297904 -0.1463805
0000d0 bd 0e 01 3a 1e 73 7d 3d e1 74 d6 3d a0 21 a8 bd
       0.00049231556 0.061877362 0.10471512 -0.082095385
0000e0 d0 04 aa bd 04 6d 95 bd 49 f4 0f be fc f7 1f 3e
       -0.08301699 -0.07296184 -0.14058031 0.15621942
0000f0 ee fa 73 3b f8 4d 2e 3e 34 be 62 bd 20 7f 91 bd
       0.0037228423 0.1702193 -0.055357173 -0.07104325
000100 5b 24 22 be d9 4e 3c 3d 60 39 3e bd b2 84 ba bd
       -0.15834181 0.045973632 -0.046441436 -0.09107341
000110 64 0c 21 3e e1 31 53 3d eb 9c b7 bc 1e 0a 17 be
       0.15727383 0.05156124 -0.022413692 -0.14749953
000120 4f cc 14 3e 19 51 37 be 5c 18 aa 3d 29 b1 15 3e
       0.14531063 -0.1790203 0.083054274 0.14618362
000130 c7 b0 cb 3b 57 35 07 be 96 2c 2b 3e a6 a8 17 be
       0.006216142 -0.13203941 0.16716227 -0.14810428
000140 2e fa 07 be ae 08 a0 bd 70 5b 9d 3d f9 a0 74 3d
       -0.1327903 -0.078141555 0.07683456 0.059723828
000150 b3 c0 e7 3d 44 dd 0c 3d 3d 81 45 be 9d 0d 07 3c
       0.11316051 0.034390703 -0.19287582 0.008242992
000160 30 ed c7 3d ff 4f b4 3d f1 96 ba 3c 0b 8f 3d 3e
       0.09762037 0.088043205 0.022777053 0.18511598
000170 bd f2 fc bc a5 84 b4 bd db 03 0f 3e 60 c4 9c bb
       -0.030877465 -0.088143624 0.13966314 -0.004784152
000180 06 c0 6e 3e 23 ad fd bd 68 3a 45 3e 7f 6b 21 3e
       0.23315439 -0.12386539 0.19260561 0.15763663
000190 8d 5a da bd ef b8 c0 bd 0b 02 1a 3e f1 76 4e 3d
       -0.106618024 -0.09410273 0.15039842 0.0504064
0001a0 44 dc 52 bd 71 89 1c bd bf e1 30 be f7 2a 01 bd
       -0.051479593 -0.03821701 -0.17273615 -0.031535115
0001b0 7b 5e 65 bd e3 b7 e5 bc e5 3b 06 3e 7e 52 f7 3d
       -0.055998307 -0.028041786 0.13108785 0.12076281
0001c0 c7 5d dd 3c 40 e4 2b bd 5f b3 f9 3d ae d7 0d be
       0.027022256 -0.041965723 0.121924154 -0.13851807
0001d0 fc 82 14 be 03 a2 bd 3c b4 d9 e8 bd fb be 21 be
       -0.14503092 0.023148542 -0.113696486 -0.1579551
0001e0 68 63 c2 bb 55 1e 0a 3e 6d 23 76 bd 5f 40 f1 3d
       -0.0059322603 0.13488133 -0.06009238 0.11779856
0001f0 bf 71 f7 bd 5a af 1b 3c 56 a7 3a bd a0 17 80 3d
       -0.12082242 0.009502256 -0.04556974 0.06254506
000200 9b e8 a0 bd 33 05 12 be 66 30 04 3e 53 92 53 bd
       -0.07856866 -0.14259796 0.12909088 -0.051653218
000210 16 cd e9 bd ec c1 0f be 90 44 e5 3d a6 86 07 3d
       -0.1141607 -0.14038819 0.11194718 0.033087395
000220 86 12 05 3d 63 27 2a bd a0 86 aa 3d 0c 5a a9 bd
       0.03248837 -0.04154147 0.08326459 -0.08269128
000230 bd e0 1b bd cb 9b 5b 3c 70 0b 42 3d f7 dc 3a be
       -0.038056124 0.013403843 0.04737419 -0.18248354
000240 b8 e1 91 3d 31 ae 1a 3e eb c4 14 3e 0a a2 1e be
       0.071231306 0.15105511 0.14528243 -0.154915
000250 7b b8 82 3d 01 aa d6 3d b8 af 17 3c b5 4d 6a 3c
       0.06382843 0.104816444 0.009258203 0.014300753
000260 a9 ca 01 bc 96 e1 09 3d 76 a4 7d 3c 66 e6 fe 3d
       -0.007921853 0.0336624 0.015481105 0.12446289
000270 cb 87 89 3d 03 3b e3 bd 34 a4 0e 3e 6a 78 0f 3d
       0.067153536 -0.1109524 0.13929826 0.035026945
000280 05 27 15 3e 1f 51 fd bd 56 98 1d 3d 2e 23 89 bc
       0.14565666 -0.12368988 0.038475357 -0.016740408
000290 e2 69 8f 3d 88 ca 79 bd b5 a8 12 3d 5d f0 fd bd
       0.070026174 -0.060984164 0.035805423 -0.12399361
0002a0 6b 76 9e 3d 57 02 a6 3d 3d 80 6c bc f8 9a a4 bd
       0.0773743 0.08105915 -0.014434871 -0.080373704
0002b0 62 24 94 bc 97 42 8d 3d d3 08 77 3d 8e 32 31 3e
       -0.018083755 0.06897467 0.06031115 0.17304441
0002c0 b1 42 a0 3d 83 ff 6b 3d e4 15 ca 3c 80 41 e2 3b
       0.078252204 0.05761672 0.024668641 0.006904781
0002d0 00 3f a1 bd 3a 95 f5 3d 37 53 15 be 55 2b 02 3e
       -0.078733444 0.11991353 -0.14582525 0.12711842
0002e0 01 d6 cb bd 5a fb 95 bd 82 56 be 3d 55 23 bc bd
       -0.099529274 -0.07323332 0.09293844 -0.091864266
0002f0 66 87 ec bd 6e 8f 01 3e ea a4 2d be df 80 d4 bc
       -0.11549263 0.1265237 -0.16957441 -0.025940357
000300 c6 8b 14 3d 21 d2 d5 3d d0 35 29 be 42 bd 8e 3d
       0.03626611 0.104404695 -0.16524434 0.06969692
000310 07 8d 51 bd 93 7a ed 3d 89 85 db 3d 6c 56 3c be
       -0.051159885 0.11595645 0.10718829 -0.18392342
000320 fc 8e 5c 3d 29 df b7 bd a8 5b ca bd de 7e 2c 3d
       0.053847298 -0.08978111 -0.09880763 0.042113177
000330 1d 84 1f 3e e6 56 41 3e 3b 7f b7 bd 46 1a 95 3d
       0.15577741 0.18880805 -0.08959814 0.07280402
000340 a6 f2 fe bd 40 70 3b 3d c3 67 21 bd d9 b1 3c 3d
       -0.12448625 0.045761347 -0.039405596 0.046068046
000350 01 f6 31 bd 7d 96 e6 bd 64 9e 3d 3d ad 5a 93 bd
       -0.0434475 -0.11259172 0.04629363 -0.071950294
000360 1d 00 33 be e9 36 bb 3d 76 b1 96 3d c4 17 0d 3d
       -0.17480512 0.09141333 0.07358067 0.034446493
000370 c5 f0 c1 bb 45 b8 96 3d 17 22 ed 3d 17 8f 96 bc
       -0.0059185945 0.073593654 0.11578768 -0.018378777
000380 ae 2b e9 3d ea b1 42 ba 27 9a d8 3c b3 54 e0 bc
       0.11385284 -0.0007427024 0.026440693 -0.027384138
000390 18 65 f5 3d ad 97 85 bd 4e 72 ee 3d 52 a7 b3 bb
       0.11982173 -0.065230705 0.11642896 -0.0054825926
0003a0 e1 7c 30 3e 36 06 01 be c1 3b 4c 3d 1b 8d cd 3d
       0.17235138 -0.12600026 0.049861673 0.10036679
0003b0 3b 9b d7 bd 5d 72 b6 bd 83 ee b2 bd f5 24 c4 3d
       -0.10527655 -0.08908532 -0.08736899 0.095773615
0003c0 69 ac 33 3d d7 7e 30 be a2 9d 37 bd 06 66 ea bd
       0.043865595 -0.17235886 -0.044828065 -0.11445241
0003d0 63 51 d4 bc b1 7f 2c bc e0 a5 e4 bd b4 ac c9 bd
       -0.025917714 -0.010528491 -0.11164451 -0.09847394
0003e0 43 ba fb 3d ac c3 5d 3d 63 c2 45 3d ff 28 0f bd
       0.12291386 0.054141685 0.048281085 -0.034951206
0003f0 f2 a6 6a bd 87 5c 3b 3d 4d 10 64 3e 83 2c 76 3d
       -0.057288118 0.045742538 0.22271843 0.060101043

encoder.forward_layers.4.layer.0.bias f4 [10]
000000 68 6c bf bd 14 6b 91 3d ca 82 30 3e 1b e5 13 3e
       -0.09346849 0.07100502 0.17237392 0.14442866
000010 9f 9f 13 be 68 7c c7 bd 77 09 b9 3d 81 b1 06 3e
       -0.1441636 -0.097405255 0.090350084 0.1315365
000020 91 a3 e4 bd 17 fc 89 bd
       -0.1116401 -0.067375354

encoder.backward_layers.0.layer.0.weight f4 [2, 1, 2, 2]
000000 c4 4c a0 be fc 4b 2a be b0 ed 7d be cc 95 42 be
       -0.31308568 -0.16630548 -0.24797702 -0.19002455
000010 f0 ad 89 3e fc 63 f6 be a0 20 a9 3e 60 92 aa 3e
       0.26890516 -0.48123157 0.33032703 0.333148

encoder.backward_layers.1.layer.0.weight f4 [4, 2, 2, 2]
000000 2f 35 55 3e 75 3b 1b bd ac 59 c9 3d 16 16 ba 3d
       0.20821069 -0.0378985 0.09831557 0.09086244
000010 33 90 87 bd 64 34 ae 3e 06 0a 44 3e 28 1e 3d 3e
       -0.06619301 0.34024346 0.19144449 0.18468535
000020 4e a9 9a be 26 eb c8 3c e6 04 07 bd b3 08 a8 be
       -0.30207294 0.02452619 -0.032963656 -0.32819137
000030 da 5b 0d bf 2b 35 0f bf d4 8c 34 be e8 43 9f be
       -0.5521828 -0.559405 -0.17631847 -0.31106496
000040 1f ba 91 3e b7 a3 fd 3e e7 87 81 3e e6 3c ac bb
       0.28462312 0.49538967 0.25298998 -0.005256283
000050 a9 63 3d be 74 48 bc 3d de 2b 56 3e 79 1c 97 3d
       -0.18495049 0.09193507 0.20915172 0.073784776
000060 c5 7e c7 be 55 74 8d bd 25 a3 0e be 7c e5 6f bd
       -0.38963905 -0.06906954 -0.13929422 -0.058568463
000070 5c 96 bf bd da 34 ab 3e 5a 8f 8b bd 90 ae b5 3d
       -0.09354851 0.3343876 -0.068144515 0.08871186

encoder.backward_layers.1.layer.0.bias f4 [2]
000000 80 e1 69 b7 e1 69 28 bb
       -1.39403855e-05 -0.0025697874

encoder.backward_layers.2.layer.0.weight f4 [6, 4, 2, 2]
000000 b5 c1 3d be d9 d0 42 3d 42 46 cc bd eb 9d 73 be
       -0.18530925 0.047562454 -0.09974338 -0.2379071
000010 8c d1 8b bc 7b b2 d2 3d cb 11 9f bc 9d a8 b0 bd
       -0.017067693 0.10287949 -0.019417664 -0.086259104
000020 6a 80 22 3e 41 16 78 3e e0 70 db 3d 5c d6 89 3d
       0.15869299 0.24227239 0.107148886 0.06730339
000030 74 d0 25 3d 93 57 34 bd a8 16 b4 bd c5 5d 6a 3e
       0.040482 -0.04402883 -0.08793384 0.22887333
000040 74 3f 22 3e c6 87 c9 bd 64 3c 92 3e fc 0c a1 3e
       0.15844518 -0.0984035 0.285617 0.3145522
000050 04 c5 d5 3b 3b 79 96 bc 68 44 0f be e7 7e 8a 3d
       0.0065237302 -0.018368354 -0.13990939 0.06762486
000060 78 af a9 bc 7c b7 e6 3d 3b 6c a1 be 80 60 02 be
       -0.020713553 0.112654656 -0.31527886 -0.12732124
000070 5a 2c da bd bd 83 11 be d8 77 83 3e 08 a0 56 3e
       -0.10652991 -0.1421041 0.2567737 0.20959485
000080 94 be 35 bc cb 90 ff bd bf bf 92 bd 4e 70 55 bb
       -0.011092801 -0.12478789 -0.07165479 -0.003256816
000090 15 a1 20 3e d0 6b 2d be 93 63 31 be 41 7f c4 bd
       0.15686448 -0.16935658 -0.17323141 -0.09594584
0000a0 ba fd 9d be e3 b5 0c be 4b 3a 34 3c 39 b6 ef 3c
       -0.3085764 -0.1374126 0.011000226 0.029261695
0000b0 9a fe b8 3d 0f 3b 04 3e 00 8a 9f bd 54 cd 62 3d
       0.090329364 0.12913154 -0.07789993 0.055371597
0000c0 3b 78 c7 bd 02 e1 9e 3c 36 31 8c be 1f 6c 04 bd
       -0.09739729 0.019394401 -0.27381295 -0.032329675
0000d0 f2 63 7c 3e 2a b1 29 3d 8a a3 7b bd dd ca f3 3d
       0.24647501 0.041428722 -0.06143526 0.119039275
0000e0 5b 14 8c 3e 40 63 bc 3e b4 ce 3a 3e 81 ea 02 3e
       0.2735928 0.36794472 0.18242913 0.12784769
0000f0 27 00 5e be 27 35 f0 3d 44 37 4c be 20 cb 5b be
       -0.21679746 0.11728888 -0.19942957 -0.21464205
000100 08 19 67 3e 72 f1 ad 3d 29 e2 c1 bd 25 64 19 be
       0.22568142 0.08493318 -0.09466965 -0.14979608
000110 0b 35 7e bc 3f 89 83 3b e5 34 0d be a5 cf 21 be
       -0.015515576 0.0040141637 -0.13789709 -0.15801866
000120 0e 58 4c be c9 77 88 be 7d 20 ad 3d 7a 84 15 3d
       -0.19955465 -0.2665389 0.08453462 0.036503293
000130 af b4 2f 3e b2 aa b2 bd 9c 19 cd bd 32 2e 78 3e
       0.17158769 -0.08723964 -0.1001465 0.24236372
000140 7a 28 3c bd 95 b6 0b 3e ff 2f b7 bd 1a cd 32 bb
       -0.04593704 0.13643868 -0.089447014 -0.0027282895
000150 2e 56 04 3e bc c3 07 3e cd 01 fc 3c 35 db 0a 3d
       0.129235 0.1325826 0.030762577 0.03390046
000160 18 19 06 3d 70 0d d8 3e eb 54 d7 3e 6b 7e 87 3d
       0.032738775 0.42197752 0.42056975 0.06615909
000170 dc 29 c1 3d bc 0e ab 3d f0 31 5a be 93 8a a0 bd
       0.09431812 0.0835242 -0.21308112 -0.07838931

encoder.backward_layers.2.layer.0.bias f4 [4]
000000 c8 b7 ce b8 d5 5f 14 38 dc ac 42 39 26 a3 cf b8
       -9.8570774e-05 3.53752e-05 0.00018565677 -9.900918e-05

encoder.backward_layers.3.layer.0.weight f4 [8, 6, 2, 2]
000000 69 3f e5 bd ef cc a5 bb b9 30 d5 3c 02 07 2f bd
       -0.11193735 -0.0050598304 0.02602421 -0.042731293
000010 98 cc c6 bc fd 24 97 3d 38 4f 98 bc f4 16 31 be
       -0.02426748 0.07380102 -0.018592462 -0.17293912
000020 b9 c9 00 bd a2 2c 52 3a 04 1b 08 3e f2 25 9f bd
       -0.031442378 0.0008017515 0.13291556 -0.07770909
000030 4e ff 9d bd cd 36 6f be de 39 2b be d3 36 1e be
       -0.07714711 -0.23360749 -0.16721293 -0.15450601
000040 38 99 0b be cb 51 8b bd 6f 1b 3e be ff e3 96 3c
       -0.13632667 -0.0680271 -0.18565153 0.018419264
000050 24 16 82 3e ba 22 ec 3d 45 eb 5d 3e e9 db 2e 3e
       0.25407517 0.11530061 0.2167178 0.17076077
000060 fc ad 84 3c ac c2 ae bd 96 40 75 3d 81 e4 62 bd
       0.016196243 -0.085332245 0.059876047 -0.0553937
000070 3d d2 0e bd b5 7b 53 be 89 98 68 3d ef 93 b9 3d
       -0.034868468 -0.20652659 0.056786094 0.09061419
000080 bb 86 25 bd ba 04 0e be b2 5b 16 3e f3 3f f0 bd
       -0.040411692 -0.1386899 0.14683416 -0.11730947
000090 53 09 ea bd d8 b7 bf 3c 3c 42 45 3c e0 1a 64 bc
       -0.1142756 0.023403093 0.012039717 -0.013922423
0000a0 e6 61 9f bd ac 94 8e bd 46 f7 5c be 81 45 2f be
       -0.077823445 -0.06961951 -0.21578702 -0.17116357
0000b0 00 28 25 3e a2 69 6f 3e d5 c7 5d 3e 65 0b a6 3d
       0.1612854 0.2338014 0.21658261 0.08107642
0000c0 01 94 ed 3d 77 fe 3d 3d 32 fe 9c 3d 40 ef 6b 3c
       0.11600495 0.046385255 0.076656714 0.014400303
0000d0 68 15 c6 3c 42 18 3a 3e 4f a7 a8 3d 56 28 8b 3e
       0.02418013 0.18173316 0.082350366 0.2717921
0000e0 18 72 e2 bd 85 9e 98 bd ba 9d ab 3d a0 fe 8c bd
       -0.11056918 -0.0745211 0.08379693 -0.06884503
0000f0 c0 c4 e3 bd 47 63 52 3e ff 42 37 3e a5 aa f0 3d
       -0.111215115 0.20545684 0.1789665 0.11751298
000100 7d 53 0a 3e 83 6c 2e 3e d9 c2 95 3e b2 8f 86 3e
       0.13508411 0.17033581 0.2925022 0.26281506
000110 2a 5c a8 be 69 fe 93 bd cc da 93 bd 70 0a 82 be
       -0.32882816 -0.07226259 -0.072194666 -0.25398588
000120 37 d8 87 3c ad a8 44 3d 36 45 b4 3c 24 5f 3e 3d
       0.016582591 0.048012424 0.022005659 0.046477452
000130 63 b9 f8 3d d4 92 46 3e d5 72 87 3c 07 e3 66 3c
       0.12144735 0.19391948 0.016534248 0.0140922135
000140 40 c4 e7 3c 9f 10 94 3d a8 85 1d 3e 99 a1 81 3c
       0.028291821 0.07229733 0.15383017 0.015824126
000150 ea 95 c8 3d f2 ca 3e 3e ec 97 ec 3d d2 62 8f 3c
       0.09794219 0.18632105 0.11552414 0.017503176
000160 f6 b7 82 3e de 29 51 3d 96 d4 15 3c 80 5e 07 3e
       0.25530976 0.05106532 0.009144923 0.13219643
000170 11 de 78 3d 88 3e c5 3d f0 0f 6e 3d c7 22 29 bc
       0.060758654 0.096310675 0.058120668 -0.010323233
000180 59 8d f4 3d 9a 37 f0 3c 55 02 59 3c 97 57 ee 3d
       0.119410224 0.029323388 0.013245185 0.116378
000190 26 f1 0b 3e 86 20 5f 3d 35 f1 9a 3c 42 8b 5e 3d
       0.1366621 0.054474376 0.018913845 0.054332025
0001a0 2b d9 d0 bd da d4 c1 3b 9e 0e 84 bd df f6 98 bd
       -0.101976715 0.0059152665 -0.064481005 -0.07468962
0001b0 9d 23 20 be 03 c9 56 bd dd a0 a0 bc a5 54 91 bd
       -0.15638585 -0.052437793 -0.019607956 -0.07096223
0001c0 e5 bb 05 be 8d 8a d9 3d 3f ae c9 3d 1e b2 cc 3c
       -0.13059957 0.106221296 0.09847688 0.024987277
0001d0 30 8d 40 3c 2c 45 21 be a4 8f f5 bd 20 de 93 bb
       0.011752412 -0.15749043 -0.11990288 -0.0045125633
0001e0 5b bb d2 bd d2 b2 b8 3c e5 7d 84 3c dd 34 94 3d
       -0.102896415 0.022546206 0.016173312 0.07236645
0001f0 61 77 34 bd eb a3 67 be 53 69 b0 be 19 c7 05 bd
       -0.04405916 -0.22621123 -0.34455356 -0.032660577
000200 aa 0b dc bd df f1 8d 3d 06 12 0a 3e 3e 7e cf 3c
       -0.10744412 0.06930899 0.13483438 0.025328752
000210 98 7d 68 bc 26 2b 84 bd 71 f5 59 bd 07 60 17 be
       -0.0141901 -0.064535424 -0.053212587 -0.14782725
000220 26 48 08 be 84 2f 4a be a3 cd 56 3c c3 0b af 3c
       -0.13308772 -0.19744688 0.013110551 0.021367913
000230 c3 9e e8 3d 12 df 72 3e d3 5b 9d 3d 33 ca 90 3e
       0.113584064 0.23717907 0.0768353 0.28279266
000240 45 2e fc bc 3b 5f 08 bd c5 19 c4 bc 92 7b f6 bc
       -0.030783782 -0.033293944 -0.02393807 -0.03008822
000250 f0 6d d2 bc 42 08 9b 3d 6b 23 1e 3d 5d 3a 71 be
       -0.025687188 0.075699344 0.038607996 -0.2355742
000260 86 8b 12 be 68 34 40 be 4a b2 e3 bd 17 40 0f be
       -0.14311036 -0.18769991 -0.1111799 -0.13989292
000270 99 69 d0 bd 88 21 a7 bd 08 73 c4 bc 8b 57 d0 bc
       -0.10176391 -0.081606925 -0.023980632 -0.025432369
000280 e1 58 8b be 1a 50 b9 bd 90 07 99 be a8 98 53 be
       -0.27216247 -0.09048481 -0.29888582 -0.20663702
000290 b4 66 9f 3d 64 a0 42 3e c4 e0 a6 3e 72 5a b9 3d
       0.07783261 0.19006497 0.32593358 0.09050454
0002a0 b6 3d 7d 3c 86 58 86 bb b3 e5 62 3d 05 6e 8d 3d
       0.015456608 -0.0040999083 0.05539484 0.0690575
0002b0 fe 11 ed 3d a2 bb 5d 3e d4 e4 2b 3e b0 92 af 3d
       0.11575697 0.21653607 0.1678651 0.085729
0002c0 ed 7e 17 be 2e 50 72 bd f0 dd 17 bd 42 3b e0 bd
       -0.14794512 -0.059158497 -0.03707689 -0.109488025
0002d0 63 9c 7c 3e 3f 62 77 bd 6e 89 eb 3d 34 6b 7a 3c
       0.24669032 -0.06039643 0.11500822 0.015284348
0002e0 4b 13 27 3e fb ee 44 3d 55 63 c3 ba f5 fa 1e 3e
       0.16315953 0.048079472 -0.0014906923 0.1552542
0002f0 1b fa ef bd a7 81 3c be f3 c5 6d bd 3d 5c 8c be
       -0.11717626 -0.18408833 -0.058050107 -0.27414122

encoder.backward_layers.3.layer.0.bias f4 [6]
000000 35 34 27 ba f8 3b 92 37 70 51 a9 39 df a5 61 3a
       -0.0006378324 1.7432481e-05 0.00032294868 0.00086077856
000010 13 ac f6 3a 4d f3 c1 ba
       0.0018819593 -0.0014797241

encoder.backward_layers.4.layer.0.weight f4 [10, 8, 2, 2]
000000 43 80 d5 ba 05 20 a1 3b 5a fa 80 bb 80 92 68 bb
       -0.0016288835 0.004917147 -0.003936094 -0.0035487711
000010 19 27 a2 3a 7c 2b d2 3a a9 e4 92 3a 5c ea e4 3a
       0.0012371271 0.0016034688 0.0011207062 0.0017464864
000020 4e e3 e0 3a 0a 2d 4d 3b 49 51 52 b9 54 98 ce bb
       0.0017157586 0.0031307363 -0.00020057442 -0.00630478
000030 84 41 e7 bb 6e 54 d8 bb 56 4f 49 bc d3 2d 31 bc
       -0.0070573706 -0.0066018617 -0.012286982 -0.010814148
000040 f2 84 d3 39 78 62 c8 3a 17 23 3c 39 c5 9a e3 ba
       0.00040344108 0.0015288135 0.00017942149 -0.001736485
000050 66 9e 0b 3d 03 0a cd 3b e9 88 cb 3c a7 c2 b9 bc
       0.034086607 0.006257297 0.024845557 -0.022675825
000060 2c 5c 5d bc a2 cc ad bc 67 51 48 bb 19 42 e1 bc
       -0.013510745 -0.02121574 -0.0030566098 -0.027497338
000070 af d8 e6 3b 02 f4 79 3b 46 3e e5 3d 49 89 69 3d
       0.0070448737 0.0038139825 0.11193518 0.05701569
000080 89 49 15 3b 68 bb c5 3b e5 cf cb 3a e6 35 fc b9
       0.0022779426 0.0060343035 0.0015549628 -0.00048105343
000090 13 3a ab ba 4e 80 ea ba a3 b4 a3 ba 22 ac d1 ba
       -0.0013063572 -0.0017891021 -0.0012489747 -0.0015996734
0000a0 f3 0c 0c bb 67 59 7f 39 1a 63 7a bb f0 08 9c bb
       -0.0021370023 0.00024352 -0.0038206042 -0.0047618076
0000b0 d5 5e 3f 3d 8c 5b 49 3d 86 8c cf 3a 1b fd a9 bd
       0.0467213 0.04915957 0.0015834726 -0.08300229
0000c0 ae df 7b b9 65 3a 5e ba 19 34 b5 ba 1c 05 08 b9
       -0.00024020553 -0.00084773294 -0.001382473 -0.00012971874
0000d0 83 9d 36 3c 2a ac 7a b9 7f b2 de 3b ee 08 ae ba
       0.011145952 -0.00023905994 0.0067961807 -0.0013277808
0000e0 9b af ad 3c d6 0f d8 3a 6c 2b af 39 f2 61 02 ba
       0.0212019 0.0016484212 0.00033410953 -0.00049737014
0000f0 ac a2 64 3c cd 1f 27 bd 37 93 84 3b f1 22 1f bd
       0.0139548 -0.040801812 0.0040458697 -0.038851682
000100 7c 05 9f 3a 91 7a 7c 38 40 2a 91 3a df ad 65 3a
       0.0012132372 6.019563e-05 0.0011075214 0.00087615656
000110 d1 f4 50 ba c9 bd 58 ba 61 56 07 ba 26 b3 66 ba
       -0.0007971051 -0.0008268026 -0.0005162713 -0.0008800499
000120 40 9c 1c ba af 6b 88 b9 a5 35 6b ba 21 26 a6 ba
       -0.0005974211 -0.00026020172 -0.0008972532 -0.0012676158
000130 70 c8 25 bd 37 59 c0 bc aa cb cf 3c a1 3b 16 3a
       -0.040474355 -0.023480041 0.02536567 0.00057309313
000140 6f 64 9d ba a9 ff 89 ba d3 36 b9 ba 9c db e7 b9
       -0.0012008081 -0.0010528463 -0.0014130719 -0.00044223375
000150 46 d1 00 3d 94 8e 21 3d d7 1d c0 3b df b1 e2 3b
       0.03144958 0.039442614 0.005862932 0.0069181765
000160 0b 90 78 ba ca 61 d3 3b ce 3e c0 3b 46 7f 7a 3c
       -0.00094819133 0.0064508663 0.005866862 0.015289133
000170 64 5e 17 bd e7 78 15 bd ba c1 fa 3c ba 1f 23 bd
       -0.036955252 -0.036492255 0.030609954 -0.03982518
000180 79 d1 71 3b 30 b5 19 3b b8 f8 6d 3b 4a 70 6e 3b
       0.0036898537 0.0023453943 0.0036311578 0.0036382847
000190 a0 91 2d ba b3 f2 75 ba 85 d3 e1 37 58 b8 70 ba
       -0.0006621126 -0.00093821733 2.6920587e-05 -0.0009182743
0001a0 e6 82 91 3a 8b 38 c4 3a b2 f5 94 3a 68 32 d9 3a
       0.0011101633 0.0014970464 0.0011364727 0.0016570808
0001b0 aa c5 03 3c 9e fd 4c 3c cc b2 08 3b e6 40 82 3c
       0.008042732 0.012511639 0.0020858524 0.015900087
0001c0 83 2f d9 bb 1b ab da bb b6 6b c5 bb fa 30 cc bb
       -0.0066279783 -0.0066732294 -0.006024803 -0.0062314244
0001d0 97 92 85 3a 4a a9 40 b9 d2 09 81 3b cb ba a3 3a
       0.0010190782 -0.00018373612 0.0039379383 0.0012491582
0001e0 3a fc 13 3c e6 b3 32 3c 53 18 1f 3c 28 e5 22 3c
       0.0090323035 0.010907149 0.009710389 0.00994233
0001f0 c8 e0 5e 3c ae d6 08 3c 0b 2c 44 b9 14 32 5d 3c
       0.013603397 0.008351965 -0.00018708424 0.013500709
000200 34 7e b4 ba 82 37 7c ba f8 f0 93 ba 6c ef ac ba
       -0.0013770522 -0.00096213084 -0.0011287024 -0.0013193912
000210 d7 da 89 3a 67 e8 90 3a 77 2e 77 3a 7c 0f 8c 3a
       0.001051749 0.001105559 0.0009429226 0.0010685767
000220 5e 5b 9a 3a 4f 94 86 3a 62 74 af 3a 99 00 90 3a
       0.0011776497 0.0010267588 0.0013386125 0.0010986506
000230 9c e4 0c 3d bd 44 80 3d a2 90 dd 3c 26 13 41 bb
       0.034397706 0.06263111 0.027046505 -0.0029460876
000240 67 85 88 3a 3b b5 64 3a 2d 5f 21 3a 9f e2 50 3a
       0.0010415734 0.0008724515 0.0006155845 0.00079683395
000250 81 7d 8b bb 78 cd 1a bd 2f 0a fb ba 13 96 48 ba
       -0.0042569046 -0.037793607 -0.0019152815 -0.00076517573
000260 d5 5e 1f 3c ec 86 84 bb ac 14 41 bc 27 a5 30 bb
       0.0097272 -0.0040444043 -0.011784714 -0.0026953907
000270 f3 04 36 3d d6 98 ba 3c 8b 6e 66 3c 5f c4 81 3c
       0.044438314 0.022777956 0.014064441 0.015840707
000280 ab af fa b9 9d 5e 8f bc 72 a4 88 3a 61 03 e1 b9
       -0.000478146 -0.01750117 0.0010424985 -0.00042917862
000290 c8 34 86 3a 79 aa 8d 3a 4a 7d 6c 3a ab a2 85 3a
       0.0010239119 0.0010808251 0.0009021355 0.0010195574
0002a0 13 c3 0d ba ce 2a 23 3b 02 ff 23 bb 26 78 4c ba
       -0.00054077915 0.002489734 -0.0025023823 -0.0007799886
0002b0 35 d2 2c 3d bd ff b4 3b b0 be 04 3d e8 1a ce 3d
       0.042192657 0.0055236504 0.032408416 0.10063726
0002c0 0f 7d b2 39 0e 31 45 ba 64 dc c3 bb fd f7 50 3b
       0.00034043982 -0.00075222633 -0.0059772003 0.0031886094
0002d0 7a ea 12 bd 98 4e 16 3d 4e 94 d5 3c d9 08 08 3d
       -0.035868146 0.036696047 0.026071694 0.033211563
0002e0 a7 b9 97 bb 3b 4f 5f 3c 6b b8 52 bc b2 44 b0 3c
       -0.004630286 0.01362973 -0.0128613515 0.021517131
0002f0 5e ea 2c bd 68 21 11 3c 26 3a 57 3b bf 4f a3 bd
       -0.042215697 0.008858062 0.0032841056 -0.07974195
000300 96 63 64 3b d7 93 18 3b f0 19 87 3b 42 24 90 3b
       0.0034849397 0.0023281479 0.004122965 0.0043988535
000310 cc c4 90 ba 73 ad 70 ba 10 d6 50 ba 4c 2b a7 ba
       -0.0011044978 -0.00091811194 -0.0007966468 -0.0012753992
000320 13 b1 90 b9 07 8f 4c ba a4 ef 6e ba ae ff 69 ba
       -0.0002759775 -0.0007803295 -0.0009114689 -0.0008926344
000330 15 dd 7e bc fd ef 78 3a 32 97 3b bc 16 6b d1 3b
       -0.01555564 0.000949621 -0.011449622 0.0063909395
000340 60 30 4e bb f0 9c 45 bb 2b 27 19 bb e0 58 17 bb
       -0.003146194 -0.0030153356 -0.0023369293 -0.0023093745
000350 c8 de 99 3b 8a d7 4f bc c8 34 80 3c 1f 2b be 3c
       0.004695747 -0.012685666 0.015650168 0.023213921
000360 39 7e 04 3c 17 6e 0f 3c ee 1d 01 3c 69 12 ad 3b
       0.008086734 0.008754275 0.007880671 0.0052817357
000370 2c 60 91 bd ce af e9 3c 85 b6 d9 bc 89 31 8d 3b
       -0.070984215 0.028526213 -0.02657629 0.0043088836
000380 a5 77 01 3b 4f 41 39 3a 57 d1 ec 3a 2f 3a f1 3a
       0.0019755152 0.00070669217 0.0018067759 0.0018404181
000390 7c 62 4b ba 22 7b 62 ba 01 8d 40 ba 91 2d 58 ba
       -0.0007758511 -0.0008639564 -0.000734523 -0.0008246536
0003a0 51 cc 9b ba 0a be 9d ba f3 04 a4 ba 38 98 c2 ba
       -0.0011886453 -0.0012034785 -0.0012513682 -0.001484639
0003b0 2b e0 a4 3c 80 87 e2 ba 25 7e 23 39 ad 51 9e 3c
       0.020126423 -0.0017282814 0.00015591884 0.019326055
0003c0 28 48 80 ba f1 c4 7e ba c1 a4 40 ba a2 00 23 ba
       -0.0009787129 -0.00097186776 -0.0007348769 -0.0006218051
0003d0 ba c7 5b bb be 1d e1 bb 99 29 64 ba 7d 43 9b bb
       -0.0033535794 -0.0068700006 -0.00087037083 -0.00473827
0003e0 4b fd de 3a e9 c9 51 3b 52 e0 b1 3a 44 80 b7 3a
       0.0017012743 0.0032011217 0.0013570881 0.0014000018
0003f0 c8 f2 96 3c 85 52 6e 3b 71 d2 91 3b 5e f7 47 3c
       0.018426314 0.0036365103 0.0044501354 0.012204973

encoder.backward_layers.4.layer.0.bias f4 [8]
000000 8b f8 97 3a 9e e6 00 ba d2 3b e0 ba cf 06 e4 3a
       0.0011594457 -0.0004917177 -0.0017107672 0.0017397049
000010 fb 5d d8 b8 e7 87 98 39 d0 d5 3a 3b 08 79 26 ba
       -0.00010317188 0.00029092954 0.002850879 -0.00063504325

encoder.attention_layers.0.key_conv.weight f4 [2, 2, 1, 1]
000000 49 05 da bf a6 23 dc 3e 77 a8 0d 3f fc 13 c6 3f
       -1.7032863 0.42995948 0.5533518 1.5474849

encoder.attention_layers.0.query_conv.weight f4 [2, 2, 1, 1]
000000 9e 8a 57 bf d8 7c 38 3e 69 7c 24 3f db ae 0d bf
       -0.8419589 0.18016374 0.64252335 -0.55344933

encoder.attention_layers.0.value_conv.weight f4 [2, 2, 1, 1]
000000 39 cd d4 3c 12 50 54 bf 6b 63 28 bf e7 45 c9 3e
       0.025976764 -0.8293468 -0.657767 0.39311144

encoder.attention_layers.1.rel_h f4 [2, 1, 1, 1, 1]
000000 97 87 9b 3e c1 10 81 3f
       0.30376884 1.0083238

encoder.attention_layers.1.rel_w f4 [2, 1, 1, 1, 1]
000000 5e 38 59 bf 7c eb 5a bf
       -0.84851635 -0.8551557

encoder.attention_layers.1.key_conv.weight f4 [4, 4, 1, 1]
000000 65 d7 19 3d cb ab 10 3f ba 68 46 bf f2 f1 ae 3f
       0.03755893 0.56512135 -0.7750355 1.3667586
000010 7e a5 8b be ad 0e 90 bf 31 f3 2d be 9d f5 e9 3e
       -0.27274698 -1.1254479 -0.16987301 0.456952
000020 75 7c 19 3f 06 35 99 bf 9e c8 15 3e 42 bc 4e bf
       0.5995553 -1.1969306 0.1462731 -0.8075601
000030 f2 3e b9 3c 00 89 c4 3e d6 14 e9 bf 4d e7 10 3f
       0.022613022 0.38385773 -1.8209484 0.56602937

encoder.attention_layers.1.query_conv.weight f4 [4, 4, 1, 1]
000000 22 03 b8 3f 31 5c 17 3e b0 cf 93 3f 81 97 38 bf
       1.4375956 0.14781262 1.1547756 -0.72106177
000010 e4 75 12 3e e9 51 86 bf c7 ac 4e bf 76 04 9e 3c
       0.14302784 -1.0493747 -0.8073239 0.019289237
000020 03 da d7 bf 6b 80 ba 3e 1b 85 1d bf d2 3a 56 3f
       -1.6863407 0.364261 -0.6153123 0.836835
000030 2c 9b ac bf 78 dd e8 bd 51 b0 ac be 10 94 ea be
       -1.3484855 -0.11370367 -0.3372827 -0.45816088

encoder.attention_layers.1.value_conv.weight f4 [4, 4, 1, 1]
000000 bd 6e e2 be 22 b3 69 3d 88 90 47 bf 79 00 58 3e
       -0.44225112 0.0570556 -0.7795491 0.2109393
000010 0a b3 89 be d2 8c 37 bf a6 91 ce 3f 50 b5 3e bf
       -0.26894408 -0.7169925 1.6138198 -0.7449541
000020 ff a7 01 bf 05 f7 65 bf 85 23 38 bf 0c dc 8c 3f
       -0.50646967 -0.89830047 -0.719292 1.1004653
000030 5f 34 0d 3f 47 e2 fb be 80 65 44 bf bb 81 85 bf
       0.55158037 -0.49196073 -0.76717377 -1.0430216

encoder.attention_layers.2.rel_h f4 [3, 1, 1, 1, 1]
000000 32 4b 30 bf d4 bb 37 3e ed e2 13 bf
       -0.6886474 0.17942744 -0.57768136

encoder.attention_layers.2.rel_w f4 [3, 1, 1, 1, 1]
000000 b8 11 fb bc 86 c1 02 3f a7 09 e9 3e
       -0.030648097 0.51076543 0.45515177

encoder.attention_layers.2.key_conv.weight f4 [6, 6, 1, 1]
000000 dc 6c 7f 3e 98 4e 52 3e 86 af 56 bf 42 36 9c 3e
       0.2494387 0.20537794 -0.8386158 0.30510145
000010 db 27 ef bd 0c 91 d7 bf 31 18 18 3f 06 5d bd bf
       -0.11677524 -1.684114 0.59411913 -1.4794014
000020 87 59 f9 be ba 2d 6e be 52 df 8d bd 35 c8 77 3d
       -0.48701116 -0.23259631 -0.069273606 0.060493667
000030 71 ea 52 3e cd 15 1c be 10 c0 ec bd cf 14 29 bf
       0.20597245 -0.15242691 -0.115600705 -0.66047376
000040 f1 5f 7f bf 30 4b b1 3e 05 01 01 3f 4a 1d 85 3f
       -0.9975577 0.34627676 0.5039218 1.0399563
000050 2c b3 c2 be 01 2e ad 3e 79 4a ce 3b 09 36 74 be
       -0.38027322 0.3382416 0.006295499 -0.23848738
000060 c1 dd 6e 3f 81 4e c2 bd d8 78 0f bf 3f a2 b4 bf
       0.9330712 -0.0948763 -0.5604377 -1.4112014
000070 07 b6 7a 3e 69 f4 a6 3e c1 26 b2 bd 71 a4 f2 3e
       0.244835 0.32608345 -0.08698798 0.47391084
000080 a7 d4 c5 be cb c6 1e be 24 93 1b 3f 9d 83 fc be
       -0.38638803 -0.15505521 0.60771394 -0.49319163

encoder.attention_layers.2.query_conv.weight f4 [6, 6, 1, 1]
000000 93 6d 4b bf 15 ad 6d 3f 68 c0 31 be f4 76 a4 3d
       -0.7946407 0.9284223 -0.17358553 0.08030501
000010 c3 4a b8 be 82 50 f1 3e 22 f1 c7 bf 08 a4 3c 3f
       -0.3599454 0.47131735 -1.5620463 0.7368779
000020 5b 88 cd be ca f1 38 bd b1 49 d4 be ea e5 d4 be
       -0.40143093 -0.045152463 -0.41462472 -0.4158166
000030 3b fa 2f 3f f9 72 17 3e e7 0a 69 bf 46 89 19 3f
       0.68741196 0.14789952 -0.9103226 0.5997509
000040 42 84 90 3f ab 69 90 3d 75 53 29 3f 67 7a 4b be
       1.1290362 0.070514046 0.6614297 -0.19870912
000050 b7 5b 33 3f 21 b0 26 3f 0e 99 06 bf 6a cc a9 bf
       0.7006182 0.651125 -0.5257729 -1.3265507
000060 2e 6b 6b be 5c e3 cb 3e 58 79 9f bd e6 5d 62 3f
       -0.22990105 0.398219 -0.07786816 0.8842453
000070 9a cc 0d be ac 95 5d bf 54 f8 25 bf 11 ad 70 3f
       -0.1384758 -0.86556506 -0.64832044 0.9401408
000080 13 d7 7b 3e be 2f 0c 3f 42 c1 d5 be 75 4d 95 bd
       0.24593763 0.5476035 -0.41749007 -0.072901644

encoder.attention_layers.2.value_conv.weight f4 [6, 6, 1, 1]
000000 11 f7 35 bf 0c df 85 bf 6c 0d 3a bf e6 3e cb 3e
       -0.7108012 -1.0458694 -0.7267673 0.39696425
000010 c2 d0 b3 be 81 2b 58 3e 77 e5 00 3f fe 04 bc be
       -0.35120207 0.21110345 0.50350136 -0.3672256
000020 d2 f8 80 3e a9 1d 70 3f ff 23 22 3e 56 70 a3 3f
       0.25189835 0.9379526 0.15834044 1.2768657
000030 65 3d cb 3d 65 b1 83 be 20 cf 0e bf 29 9c 77 bd
       0.099238195 -0.2572128 -0.557848 -0.06045166
000040 2c 06 2d bf 1c 0c 20 3f 4e 1b 45 be a1 fd 10 3f
       -0.6758754 0.6251848 -0.19248697 0.56637007
000050 55 0c 97 3e 05 bc 03 bf a4 bd af 3f 7f 3b 9f bf
       0.29501596 -0.5145877 1.3729749 -1.2440032
000060 82 72 c6 bd b4 60 5d 3e ce 0e bb 3e 4c bd 35 bf
       -0.096898094 0.2161892 0.36534733 -0.7099197
000070 c7 c1 de bc 19 ad 63 bf aa bd 69 3e 9d 61 d7 3e
       -0.02719201 -0.88936 0.22826257 0.4206666
000080 40 40 2f 3f e0 a3 1b bf df 94 68 be f2 07 d2 3e
       0.6845741 -0.6079693 -0.2271304 0.41021687

encoder.attention_layers.3.rel_h f4 [4, 1, 1, 1, 1]
000000 31 89 0e bf a4 23 a8 3f e9 15 52 bf ac fd 49 bf
       -0.5567809 1.3135877 -0.8206468 -0.789027

encoder.attention_layers.3.rel_w f4 [4, 1, 1, 1, 1]
000000 ca 90 01 3f 40 85 05 c0 c8 ed 53 3d 21 c0 9a bf
       0.50611556 -2.086258 0.051740438 -1.2089883

encoder.attention_layers.3.key_conv.weight f4 [8, 8, 1, 1]
000000 c6 f1 3e 3f bd e3 81 3e 8d 5e 5f 3d 3f 60 92 3d
       0.74587667 0.25369063 0.05453353 0.07147264
000010 5b 41 a6 bc 16 ed 7d bc 21 6f 2f bd eb 64 5d 3f
       -0.020294836 -0.01549842 -0.04283059 0.86482114
000020 05 1d e6 be 08 07 14 bf ca 50 2a be 0b ca b9 be
       -0.44944015 -0.5782323 -0.16632381 -0.3628696
000030 ad 19 48 3e 38 3f 47 bf e6 2e 83 be 09 65 b6 3c
       0.19541045 -0.7783084 -0.25621718 0.022264974
000040 d6 83 88 3c 06 c5 ac be e3 a5 47 bf 56 7b 03 bf
       0.016664427 -0.33744067 -0.779875 -0.5136007
000050 88 1b 16 bf f0 41 a7 be 17 96 0d 3f a8 c2 17 3e
       -0.5863576 -0.32667494 0.55307144 0.14820349
000060 b9 fd b5 3e 93 73 63 3e 7a 30 2c bd 07 b2 8f bf
       0.35545138 0.22212057 -0.04203842 -1.1226205
000070 dc c7 05 be 5a 33 e4 3e 59 1f c8 3e 12 93 48 be
       -0.13064522 0.44570428 0.39086416 -0.19587353
000080 8e 5e 59 3d 49 49 01 3f 1e dd 0d 3f 85 e5 d3 be
       0.05306869 0.5050245 0.55415523 -0.41386047
000090 72 ef 05 be cd d3 3c be c5 59 2d 3f c6 a4 88 be
       -0.13079622 -0.1844017 0.677151 -0.26688212
0000a0 a2 8a 14 bf d7 4b 9c be 6e b9 bf bd 53 0f 1e bf
       -0.58024037 -0.3052661 -0.0936154 -0.6174213
0000b0 6a da 48 be cc 74 68 3f c1 9d 13 3e 83 9f 3e bf
       -0.19614568 0.9080322 0.14415647 -0.74462146
0000c0 b8 1c 4a 3f fc a5 40 3c 49 63 cd 3e ac be a5 3f
       0.7895007 0.011758324 0.4011481 1.2948813
0000d0 1d 23 0a bf 58 7e 22 be 5d 00 ef be 99 32 04 3f
       -0.5395983 -0.15868509 -0.46679965 0.51639706
0000e0 55 66 5f be a8 76 26 3d d2 e0 48 3f 85 6e f7 bd
       -0.2181638 0.040640503 0.7846805 -0.12081627
0000f0 5c cc 9e be f9 df 13 3d 08 2a 5a bf 95 56 87 3e
       -0.3101529 0.03610227 -0.85220385 0.26433244

encoder.attention_layers.3.query_conv.weight f4 [8, 8, 1, 1]
000000 ae d2 6d bf 88 98 d5 3d 78 6c f7 3e 9b cf 31 be
       -0.92899597 0.10429484 0.48324943 -0.17364351
000010 d6 06 ed 3e 9b 23 08 bf 22 6e ea bb 4b ef 7f 3f
       0.46294278 -0.5317933 -0.007154242 0.9997451
000020 4a 15 59 be 3b c8 49 bf a3 08 5b 3f ab d3 02 bd
       -0.21199527 -0.7882115 0.85560054 -0.031940144
000030 f7 55 0c 3d ab f4 2d 3f c8 8d 9e 3c c5 19 02 3f
       0.03426167 0.6795146 0.019354716 0.5082057
000040 7d bb b2 be 87 9d 9f 3e 26 e0 af be 34 86 04 bd
       -0.34908667 0.3117487 -0.343507 -0.03235455
000050 2f 89 ab 3e d2 70 59 3f a5 45 75 be 96 0a 20 3f
       0.335031 0.84937775 -0.23952349 0.6251615
000060 3d 46 84 3f b8 af 33 bd 3b 38 05 3f ae 7d 27 bf
       1.0333935 -0.04386875 0.52038926 -0.65426147
000070 3f 16 8f bf 2f 53 f4 3e e0 6a 4a 3d 63 67 b3 3d
       -1.1178664 0.47719714 0.04941833 0.08759954
000080 92 5c bb be 7d 00 81 bf e1 8c 65 3c 26 00 fd be
       -0.36594063 -1.0078274 0.014010639 -0.49414176
000090 d6 e0 c6 3d 33 6c 6e 3e 56 38 28 bf 39 4b 0f 3f
       0.09710853 0.23283462 -0.6571096 0.55974156
0000a0 5b 75 0d 3f 6d c9 15 be cc 58 22 3d b8 5e 0b 3f
       0.55257195 -0.14627619 0.039635465 0.54441404
0000b0 87 62 37 3f 94 36 eb 3e 89 8a 66 3f 24 b9 98 bd
       0.71634716 0.45940077 0.9005514 -0.07457188
0000c0 c5 20 9b 3e 63 02 e5 be 70 2b 30 bd 99 d0 97 3e
       0.3029844 -0.44728383 -0.043010175 0.29651335
0000d0 81 4a 53 be 54 67 20 bf fa df 28 bf 72 bf 40 bf
       -0.2063389 -0.62657666 -0.6596676 -0.7529212
0000e0 2e 2d 23 bf 30 4b 09 bf 50 87 f6 bd 38 a1 57 bd
       -0.63740814 -0.5363035 -0.120375276 -0.052643985
0000f0 2b 78 5c bf b3 24 fb be 08 1f 54 be 6c 14 5a 3e
       -0.8612086 -0.49051437 -0.20714962 0.21296853

encoder.attention_layers.3.value_conv.weight f4 [8, 8, 1, 1]
000000 46 bf 56 3e 56 c7 3b bf a1 6e 73 bc fc 68 55 3f
       0.20971403 -0.7335104 -0.014857919 0.8336332
000010 6b 2a 91 3e 8f f8 62 be 68 fb 2e bf db be 53 bf
       0.28352675 -0.2216513 -0.68352365 -0.827131
000020 de 60 28 3d 96 95 26 3e 9e 39 24 3f 54 7b fd be
       0.041108005 0.16268 0.64150417 -0.49508154
000030 22 85 91 3e 9a 72 28 bd 3a 7f 40 3e 0a 72 53 be
       0.28421885 -0.041124918 0.18798533 -0.20648971
000040 75 f8 2d be d7 86 90 3d da 96 8e 3f 30 74 9a bd
       -0.1698931 0.07056969 1.1139786 -0.07541692
000050 37 3d 2f 3e 20 3e f9 3e 09 35 dc 3e fa bb a7 be
       0.17113195 0.4868021 0.43009213 -0.32760602
000060 13 12 c3 3e 78 33 f7 be 78 0d 2c be 13 5f 19 3f
       0.38099727 -0.48281455 -0.16802013 0.59910697
000070 78 3d a0 3e 60 55 a3 bd 71 e5 0d 3f 8c 64 96 3e
       0.31296897 -0.07975268 0.55428225 0.29373586
000080 5a 2b f3 be d7 e2 97 be 96 0e 93 3e f9 97 15 3e
       -0.47494012 -0.29665253 0.28722066 0.14608754
000090 b8 0b 36 be 1f c3 d8 3e a6 d1 25 be ea a6 29 bf
       -0.17777908 0.42336366 -0.16193256 -0.66270316
0000a0 27 76 d3 3e d8 9a 24 be 24 dc cb 3e 26 96 30 be
       0.4130108 -0.16074693 0.3981639 -0.17244777
0000b0 df 42 92 3e 24 c1 be 3e 4f 5e 0c bf 44 12 3c 3d
       0.28566644 0.3725673 -0.54831403 0.045915857
0000c0 70 b6 ca be 44 54 10 bf e8 69 c3 bd 81 ea c2 be
       -0.39592314 -0.5637858 -0.095416844 -0.38069537
0000d0 30 0f 59 be c2 1a 07 bf 7e f2 82 3f f6 ec 11 3f
       -0.211972 -0.52775204 1.0230253 0.570022
0000e0 44 55 54 bf d0 ce 1d 3f 00 31 0d be 65 0e 9c be
       -0.82942605 0.61643696 -0.13788223 -0.30479732
0000f0 06 ce 73 3f 77 94 b8 be c4 c8 4a 3f 07 5f 7e bc
       0.9523624 -0.3605077 0.79212594 -0.015525586

encoder.attention_layers.4.rel_h f4 [5, 1, 1, 1, 1]
000000 f3 7f 37 3d 22 eb 94 3f d7 c4 12 3f b0 bd 23 3f
       0.044799756 1.1634257 0.57331604 0.63961315
000010 28 89 95 be
       -0.29206204

encoder.attention_layers.4.rel_w f4 [5, 1, 1, 1, 1]
000000 28 9a d9 3f f7 4f bc 3f 6c 14 8b 3e 94 ff a1 bd
       1.700017 1.4711903 0.27164018 -0.07910076
000010 94 f6 22 bf
       -0.636575

encoder.attention_layers.4.key_conv.weight f4 [10, 10, 1, 1]
000000 e9 e8 07 bf 29 9b 0e 3e fa e8 39 3e a2 46 24 3d
       -0.5308977 0.13926376 0.1815528 0.040106423
000010 b5 51 17 be 26 48 25 be fb e6 d8 bc fb 45 0d bf
       -0.14777263 -0.16140804 -0.026477328 -0.55184907
000020 10 1b 34 bd 63 c0 90 bd ef 28 7c 3e 71 a0 d7 bd
       -0.04397112 -0.07067945 0.2462499 -0.10528649
000030 fc bd 15 bd 44 f4 8b bd 58 c0 d1 3c d8 ac 2c 3f
       -0.036558136 -0.06833699 0.025604412 0.6745124
000040 6c 2e 4e 3d 68 8d 21 bf 14 ff 01 bf a9 20 56 bd
       0.05033724 -0.63106394 -0.50779843 -0.05227724
000050 c5 30 14 3f b2 f1 5f bf 77 41 22 be de d1 05 be
       0.57886916 -0.8747817 -0.15845285 -0.13068339
000060 a4 cd 73 3e 91 56 1c bf 2e 19 8e 3e f4 b2 a2 bd
       0.23808914 -0.6106959 0.27753586 -0.07944289
000070 b6 2c 4c bd f9 77 c1 3e eb a8 ad 3f 4b 64 05 3f
       -0.049847327 0.37786844 1.3567175 0.5210616
000080 70 e5 04 3e e5 84 90 bd e1 dc 22 bf d3 8e 0f bf
       0.12978148 -0.070565976 -0.63618284 -0.5607731
000090 7a e7 87 be da fe ba be 1a 18 86 bd a6 bc 88 be
       -0.2654379 -0.3652256 -0.06547566 -0.26706427
0000a0 ca 72 50 be 91 13 46 bf 62 61 ac 3f 05 59 10 bf
       -0.20356289 -0.77373606 1.3467219 -0.56385833
0000b0 13 e8 04 3f c2 fc 06 3e 0b d0 39 be 5a a8 87 3d
       0.5191662 0.13182357 -0.18145768 0.066239074
0000c0 ba 70 db bd a3 5e 9d be e9 75 c8 3e c3 4e 2f bd
       -0.1071486 -0.30736265 0.39152458 -0.042799722
0000d0 bc e0 24 3f a0 71 90 3f e3 d2 26 bf 0c 52 b0 be
       0.6440542 1.1284676 -0.6516554 -0.34437597
0000e0 42 eb fd 3d 23 4e 24 3e fc da 58 3d 40 12 0c 3e
       0.123983875 0.16045432 0.052943215 0.13678837
0000f0 a3 17 ef be 3a 39 89 3d f2 90 38 be c5 7a 14 3f
       -0.4669772 0.06700368 -0.18024042 0.5799983
000100 4b 79 d5 3e a7 39 c7 3e 4b 41 8c be 28 09 b3 be
       0.41694102 0.38911173 -0.27393565 -0.34967923
000110 a2 d9 00 bf 2f ac a6 3e 6a 49 a6 be ce 6a 0a bf
       -0.5033208 0.3255324 -0.32477885 -0.5406922
000120 62 3f 7f bf 0d 49 cc 3d 53 1e 17 3f ad ee 62 be
       -0.9970609 0.09974871 0.59030646 -0.2216136
000130 c3 bd 3e be 24 86 20 bf f1 d3 07 3f 39 2b cd bf
       -0.18627076 -0.6270468 0.5305777 -1.6028816
000140 9e 40 2e be c5 23 4b 3e 58 33 2e bf 0d b7 d0 3e
       -0.17016837 0.19837864 -0.68047094 0.40764657
000150 20 26 26 bf 2b 44 8e 3f 10 64 20 3f e4 2d e1 3e
       -0.64901924 1.1114553 0.62652683 0.43980324
000160 82 e2 bf bd 02 a9 56 be 99 1d 88 3d 43 7d 69 3c
       -0.09369375 -0.20962909 0.0664627 0.014251056
000170 0e 4b 79 be e9 34 1f be 80 d2 cc be 75 3f 8f 3e
       -0.24345037 -0.15547527 -0.4000435 0.279781
000180 38 52 01 bf ce ed df 3e b9 a5 83 bd 92 84 8e be
       -0.5051608 0.43736118 -0.064280935 -0.27835518
